tennis_best_model_critic.pth (torch_old, 161040 bytes, 7 tensors)

fcs1.weight f4 [128, 48]
000000 23 31 9c be 02 ba 20 3e 0b 15 58 3d 35 a7 a8 3d
       -0.30506238 0.15695956 0.052754443 0.08235017
000010 78 58 2b 3e 7a aa cd be 5c 17 d8 3c ea 91 91 bd
       0.16732967 -0.40169126 0.026378326 -0.07107909
000020 b3 b7 e8 bc 8b 2b 20 3e bb b3 95 bd 63 da 26 bd
       -0.028407907 0.1564161 -0.073096715 -0.040735614
000030 87 cc 91 3d df 75 79 be e7 4a b2 bc 22 00 22 be
       0.071190886 -0.2436137 -0.021764232 -0.15820363
000040 1c 4c 70 3d e6 8b 87 bd 06 77 96 3d 39 01 e3 be
       0.058666334 -0.066184804 0.07346921 -0.4433687
000050 5f 06 85 3e ee d5 fc 3d 06 d7 39 bc 2b da bb be
       0.25981423 0.12345491 -0.0113427695 -0.36689886
000060 17 ee ac bc 06 73 d5 3e 43 45 26 3d 74 a0 ae 3d
       -0.021109624 0.41689318 0.040593397 0.08526698
000070 8e 51 11 be dd f1 94 be bf 17 d9 3c bd 67 f0 3d
       -0.14191267 -0.29090777 0.02650058 0.117385365
000080 31 24 86 3d 88 49 07 3f 84 c8 66 3d 09 16 99 be
       0.06549872 0.52846575 0.05634357 -0.29899624
000090 63 f6 16 be 5a bd 8a be 36 b8 06 3d da ea 3b be
       -0.14742427 -0.2709759 0.03289052 -0.18351308
0000a0 cd 9e 98 3d 18 d4 ae 3e 35 93 75 bd 2c 39 26 be
       0.07452164 0.3414619 -0.05995484 -0.16232747
0000b0 2e 0d 92 be e1 e6 3b 3e 78 3d 37 bd 9c b0 48 be
       -0.2852568 0.18349792 -0.044736356 -0.19598621
0000c0 ce be 2d 3e a5 e2 d8 bc 5e ac 37 be 8e c2 79 be
       0.16967317 -0.02647526 -0.17936847 -0.24390623
0000d0 c7 c2 c3 bd b2 73 99 bc 10 14 32 be 4f e2 41 be
       -0.09558635 -0.018731926 -0.17390466 -0.18933986
0000e0 bd 10 3f 3e da 19 32 bd a0 6f 07 be 4f ad 88 be
       0.18658729 -0.043481685 -0.13226175 -0.26694724
0000f0 42 f3 90 bd d6 37 7a bd cb e0 20 be fa 00 75 be
       -0.07077648 -0.061088406 -0.15710752 -0.23926154
000100 d5 7f 85 3e 3d 5d ba bd b3 da 24 3d 51 21 02 bf
       0.2607409 -0.09099815 0.04024763 -0.50832087
000110 47 e8 75 be 10 d6 6d bd 7d 30 00 3d 2d bd 0c bf
       -0.24014388 -0.058065474 0.031296242 -0.5497616
000120 36 66 04 3d 66 03 c5 be 52 8e fc 3b df 26 6b be
       0.03232404 -0.38479155 0.0077073956 -0.22964047
000130 fa 15 03 3e f4 69 e4 3b 67 39 53 3d fc 0b 4f be
       0.12801352 0.0069706384 0.051568415 -0.20219415
000140 ba 01 0b be 63 c2 ea be e8 63 75 bd 0d e5 fd bd
       -0.13574877 -0.4585143 -0.05990973 -0.123972036
000150 4d 29 f2 3d b6 e5 e8 bc 2b e9 a5 bc e4 3c 10 be
       0.11824284 -0.028429847 -0.020252785 -0.14085728
000160 67 2d 56 bd e3 cd fc 3d 05 a3 d8 bd 0f b3 13 3f
       -0.052289393 0.12343957 -0.105779685 0.57695097
000170 a6 22 c5 3e d3 9a df 3c c3 3b f2 bd 07 a7 14 3f
       0.38502997 0.027295506 -0.11827805 0.58067364
000180 2c af b1 3d 3c a6 39 bf 88 bd ec bd 90 c2 2b bd
       0.086759895 -0.7251928 -0.11559588 -0.041933596
000190 f9 39 b7 be ae 81 1a 3d 6a d5 5d bc ae f3 db 3d
       -0.35786417 0.03772133 -0.013539651 0.107398376
0001a0 06 7b a2 bc ad 70 43 bf da 49 11 3e 84 b9 9f be
       -0.019834053 -0.76343805 0.14188328 -0.31196225
0001b0 0f 66 ff bd df cd 11 3e 62 bc d6 3d 22 bd b6 be
       -0.12470638 0.1423869 0.1048515 -0.35691172
0001c0 9b 95 25 bd 1b 4b 47 bf 87 80 97 bb 83 69 e1 bd
       -0.040425878 -0.77848977 -0.004623476 -0.11006453
0001d0 33 b1 d3 3d ae d8 81 3d 07 b6 ba 3d fe 15 05 be
       0.103365324 0.063401565 0.0911675 -0.1299667
0001e0 61 a2 2d 3e 99 73 6f 3f 4d c3 8d bc 3c b9 89 bc
       0.16956474 0.93535763 -0.01730504 -0.01681196
0001f0 ae c9 90 3e 94 bf ee 3d 8a 0c 08 be b0 51 e5 bd
       0.2827887 0.116576344 -0.13286033 -0.11197221
000200 d2 5a 89 3e aa 50 36 3f e6 6f 0c be 24 45 bf 3d
       0.26827103 0.71216834 -0.13714561 0.093393594
000210 16 3f 05 3e 7a db 33 3e 55 0f 0a be 96 12 42 bd
       0.13012347 0.17564192 -0.13482411 -0.047381006
000220 54 4c 3b 3e 57 15 0e 3f ea 08 c2 bd 8e dc 19 3e
       0.18290836 0.5550131 -0.094743565 0.15025541
000230 f7 7a dc bd 4b a4 13 3e d0 13 95 3d d5 95 94 3e
       -0.10765641 0.14418142 0.072791696 0.29020563
000240 43 38 a4 3e 12 ae 2c 3f 01 18 07 bc d4 44 d9 3e
       0.32074174 0.6745311 -0.008245469 0.42435324
000250 16 15 6c 3e 6f cf da 3d 10 8d 0a be 6a 0c a2 3e
       0.23054919 0.10684096 -0.13530374 0.31650096
000260 25 b1 ab 3e 31 bf 28 3f 23 6e 86 bd 91 fc c2 be
       0.33533588 0.65916735 -0.06563976 -0.38083318
000270 07 4d 28 bd 23 4e 5d be cd 60 30 bb ba 84 a1 be
       -0.041089084 -0.21611838 -0.0026913167 -0.31546575
000280 27 3a 90 3d e2 9a 02 3f 4a ef 7a be 9f f6 81 be
       0.07042342 0.5101758 -0.24505344 -0.2538347
000290 f1 d3 88 bd a4 65 09 bf 91 57 75 be 9d 1a 81 be
       -0.066810496 -0.53670716 -0.23959185 -0.25215617
0002a0 ce f5 02 be 4b fb 13 bf d3 ae 86 be 84 9a ab be
       -0.1278908 -0.5780532 -0.26305255 -0.33516324
0002b0 f4 fc 8c be a3 c8 bd 3d af 78 7d be e6 33 7e be
       -0.27536738 0.09266784 -0.24753068 -0.24824485
0002c0 1a 09 6e 3e 1a 4c e7 be 6f eb 5b bc 45 36 bc be
       0.2324566 -0.45175248 -0.013422831 -0.36760154
0002d0 48 cb cb bc e2 3a 48 be f4 34 1b bc a0 09 c0 be
       -0.024877205 -0.19553712 -0.009473074 -0.37507343
0002e0 ff 48 f1 3d 6f f5 89 be 38 3f 62 be a3 6a ff 3d
       0.11781501 -0.26945063 -0.22094429 0.12471511
0002f0 2c 5b da 3c 3d 46 00 bf 82 2d 24 be 0c 1c 98 3d
       0.026654802 -0.50107175 -0.16032985 0.074272245
000300 43 2e 61 3e 4b 4b 40 be d0 ad 3b bd a1 8a 74 3d
       0.21990304 -0.18778722 -0.045820057 0.05970252
000310 36 6b 46 bd 3a d1 6b bd f8 1b 8d bb e3 c6 54 bd
       -0.048442088 -0.05757258 -0.0043063127 -0.051947486
000320 cc 0f fb bb 44 b9 eb be 94 c5 fc ba 96 6c 1a bc
       -0.0076617952 -0.46039784 -0.0019284957 -0.009425303
000330 d8 d9 b9 39 d0 d1 b0 bd 37 f1 03 bc bd ff 0d be
       0.00035448256 -0.086337686 -0.008053116 -0.13867088
000340 44 83 8a 3d 10 96 b0 be 9b b4 8e 3d 4e 6f 02 3c
       0.06763318 -0.3448949 0.069680415 0.007961107
000350 a1 1d 4e 3e 5d de 44 3d a2 c1 c9 3d 1b 3e 76 3d
       0.2012849 0.048063625 0.09851386 0.060117822
000360 7b bc ee 3e 4b 9b 77 be 9e d0 98 3d 7f bf 04 3e
       0.46628174 -0.24180333 0.074616656 0.12963675
000370 72 76 69 3d bf ac 0b bd af b3 a9 3d 17 6a 3e 3e
       0.056997724 -0.03410029 0.08286225 0.18595158
000380 9a e2 46 3f a9 5c 83 be 5b ed d3 3d af 1f 83 3e
       0.77689517 -0.25656632 0.10348006 0.2561011
000390 bf 82 ce 3c 66 af 3a 3d e6 bd eb 3d c4 c5 8a 3e
       0.025208829 0.04557743 0.1151083 0.27104008
0003a0 3f ae 13 3f f7 2b dc be dc 13 94 be 31 18 b8 be
       0.57687753 -0.43002293 -0.28921402 -0.35955957
0003b0 f8 67 68 be 9c 3d 89 3d e6 bd 4c be 23 ac cb be
       -0.22695911 0.06701204 -0.19994316 -0.39779767
0003c0 62 ab b4 bd 48 fc a9 3d 91 c2 62 bd 91 77 a8 bd
       -0.08821751 0.08300072 -0.055361334 -0.082259305
0003d0 ec 87 0c 3e 30 07 40 bd 92 22 86 bc 9e de 16 3c
       0.13723725 -0.046881855 -0.016373906 0.0092083495
0003e0 06 6f 17 bd ee e2 9b 3d 93 de 45 3c ab 9e b9 3c
       -0.036971115 0.07611643 0.012076992 0.022658667
0003f0 69 f3 1f 3d c7 ec 27 3d 67 a2 9a 3d b5 ed 74 3d
       0.039050493 0.040997293 0.07550507 0.059797008

fcs1.bias f4 [128]
000000 59 94 c8 be ed ce 81 3e 77 05 eb bd d8 9e 09 be
       -0.3917568 0.25353184 -0.11475652 -0.134395
000010 68 7f c8 be 09 ce ec be 4f 6b 59 be 70 b2 2d be
       -0.39159703 -0.46250942 -0.21232341 -0.169626
000020 3b ef 73 3d 89 bd e4 be c3 eb 4b be 0a 13 35 be
       0.05955432 -0.44675854 -0.19914155 -0.17683044
000030 db bc 2c 3e d1 c7 29 bd 97 f6 5f 3e 62 e5 09 bf
       0.16868918 -0.041450325 0.2187141 -0.53865635
000040 dc 53 0f bf 7b 8d 91 3c 92 4c 09 3e 81 06 22 be
       -0.55987334 0.017767658 0.13408116 -0.15822794
000050 2d 0f 9a bd 7e c6 f6 bd 5b 80 19 3e 54 b0 ae be
       -0.07522426 -0.12049578 0.1499037 -0.34118903
000060 2a 0f 8f bd 3f 98 28 3b 78 de b3 be e6 1b 91 be
       -0.06985314 0.0025725511 -0.35130668 -0.28341597
000070 bb 67 68 3c 8e ea 22 3e 2e 32 cf 3e fd 47 ca be
       0.0141848875 0.15909788 0.40467972 -0.39508048
000080 ec e5 10 3f a9 69 b1 be d5 95 6b be db dd 07 be
       0.5660083 -0.34650925 -0.23006375 -0.13268225
000090 c8 96 a5 bc 91 19 a9 bd 69 09 ab 3f e9 38 18 bf
       -0.0202135 -0.082568295 1.3362247 -0.5946184
0000a0 e0 02 a6 3f 43 b2 a7 be 5b cf b3 be b9 1a 6e be
       1.2969627 -0.3275319 -0.35119137 -0.23252381
0000b0 6b aa e2 bd fd b4 a7 be db df 2d bd 60 aa ea 3c
       -0.11067661 -0.3275527 -0.042449813 0.028645694
0000c0 80 96 ba be 3a b0 cd be 74 90 5f 3e a1 f6 23 be
       -0.36442947 -0.40173513 0.21832448 -0.1601205
0000d0 a6 cf 9c be 09 f9 b2 be ae 11 ab be 0f 72 5b bd
       -0.30627173 -0.34955624 -0.33411926 -0.05357557
0000e0 7b ed 0b 3e 00 0a c3 3c 9c a3 59 be 78 18 8e 3e
       0.1366481 0.02380848 -0.21253818 0.27753043
0000f0 dc c7 95 bc 33 58 d1 bd 01 a3 e2 bd f3 d4 8d be
       -0.018283777 -0.10221901 -0.11066247 -0.2770153
000100 72 fb 88 3d 75 97 82 bd f7 e7 a3 3e 4c 88 e2 be
       0.066885844 -0.063765444 0.32012913 -0.4424461
000110 67 b6 a1 be 18 88 1a be 85 0c 64 bd 89 95 e3 3c
       -0.31584474 -0.15090978 -0.055676002 0.027781265
000120 6a ee e3 be 51 0c 00 3f e9 a2 9a 3e 2a 7d f8 3d
       -0.44517833 0.50018793 0.30202416 0.12133248
000130 fc 7a 83 bd 8f 72 c1 bd 1e 1a a8 bc e6 71 0e 3e
       -0.06419942 -0.094456784 -0.020520266 0.13910636
000140 63 a1 94 bd e7 e4 3e 3e f5 9b 88 bd ce 9d 0b 3e
       -0.072573446 0.18642007 -0.066703714 0.13634416
000150 d0 53 fd 3e 44 c1 27 3d be 2f 9c 3e ef 33 fe 3e
       0.49478006 0.040955797 0.30505174 0.49648997
000160 52 be e8 be e9 42 a5 3e f9 af 9d bd 4e 1e da bd
       -0.45457703 0.3227761 -0.0769958 -0.106503114
000170 3e ee 38 3f 60 89 9d be 30 f2 c4 bd d7 aa 42 3d
       0.7223853 -0.3076887 -0.09616506 0.047526207
000180 85 5e 2b bc 9c 72 9f be 23 29 86 bd bf 88 fa 3e
       -0.010459547 -0.31142128 -0.06550815 0.48932454
000190 43 09 d7 3b c6 35 69 bc 9b d0 07 bf 71 16 5f 3e
       0.0065623834 -0.014234012 -0.5305268 0.21785904
0001a0 1b 96 f2 bd 6d 20 f3 bd 4b e9 f2 be a0 4a 64 3e
       -0.118450366 -0.11871419 -0.47443613 0.22294092
0001b0 c9 14 19 bf 41 46 7e 3e 81 20 77 bd 5e a4 91 bd
       -0.5979734 0.24831487 -0.060333733 -0.07111429
0001c0 fc 82 1c bf 47 72 bf be de cd 31 bf 6c 87 29 bd
       -0.61137366 -0.37391874 -0.69454753 -0.041388914
0001d0 d4 e6 e4 bd 85 eb 6b be 12 0f dc be a4 73 9a bd
       -0.111768395 -0.23039062 -0.42980248 -0.07541588
0001e0 2d a3 07 3f a1 c2 92 be 29 85 c3 be 40 aa a9 be
       0.5298336 -0.28664115 -0.3818753 -0.33137703
0001f0 5b 1a af be e4 99 8f bd ce 0c 38 3e 66 2a 30 3f
       -0.34199795 -0.07011774 0.17973635 0.68814695

fc2.weight f4 [128, 132]
000000 fe c9 1a 3e cd 9f dc 3d 95 6f df 3d 81 8e 9b be
       0.15116116 0.10772667 0.109099545 -0.3038216
000010 5b 82 25 3e e4 b1 94 bd 5f e7 25 3e 8e ce 0e bc
       0.16163008 -0.072604924 0.16201542 -0.008716239
000020 5f 00 df 3d a5 43 b2 bc 29 ee a0 bc 87 01 7b bd
       0.10888743 -0.021760771 -0.019644814 -0.061280753
000030 ad 14 83 3d 68 eb f6 bd aa 39 db bd 45 63 a6 bd
       0.06400428 -0.12056619 -0.10704358 -0.08124403
000040 c0 70 f4 3c e9 c1 b7 bc 56 b3 ac bd c5 69 4b be
       0.02983892 -0.02243133 -0.08432643 -0.19864567
000050 88 da 87 3e 5b d0 44 3e 89 f7 e7 be f0 cb 8c be
       0.26533914 0.19220106 -0.45306042 -0.27499342
000060 8a 39 ef 38 87 58 56 3d b8 6e 6a be 9d e8 93 be
       0.000114071256 0.05233052 -0.22893798 -0.28888407
000070 ee a2 1a be da cd 26 be 70 f5 ff 3d e6 d1 ce be
       -0.15101215 -0.16289464 0.12497985 -0.40394515
000080 e4 85 c3 be 35 95 95 bd eb 02 3a be 92 02 44 be
       -0.38188088 -0.073038496 -0.18165176 -0.19141605
000090 4f 7e 1a 3e e6 0e 34 be 82 0e 95 3c 45 08 85 bb
       0.15087245 -0.17583808 0.018195394 -0.0040598237
0000a0 02 ef ad 3e 8b a8 8e 3d 28 fb 94 bd 2a 19 1f 3d
       0.3397141 0.06965741 -0.07274467 0.038842358
0000b0 75 ad c6 3d 95 83 2c 3d 76 2b fd 3d 66 e3 66 3e
       0.09701053 0.042117674 0.12361805 0.22547683
0000c0 57 1d 40 3e e8 46 70 bd c7 21 52 3e 25 bb 27 bc
       0.18761192 -0.05866137 0.20520698 -0.01023749
0000d0 ca 0c 09 3e 16 3c 44 3e 88 14 8a 3e 20 e7 0d 3e
       0.13383785 0.19163546 0.2696879 0.13857698
0000e0 6c 04 db 3d 1c 85 0e be 2b cf d6 bd fb e4 cd bd
       0.10694203 -0.13917965 -0.10488733 -0.1005344
0000f0 4b d7 3a be e1 06 93 3e 29 e6 d8 bb c2 d8 c4 3d
       -0.1824619 0.28716186 -0.006619234 0.09611656
000100 b3 18 dc bd 73 7e 85 3e df 2f 7a 3e 7f 55 c8 bd
       -0.107468985 0.26073036 0.24432324 -0.09781932
000110 04 ec 7a be fc d6 2a be bf 64 e0 be 76 f8 f6 bd
       -0.24504095 -0.16683573 -0.43826863 -0.12059109
000120 2c 72 1e be a5 5c be bd 51 28 ae 3c 26 5a 6d bd
       -0.1547324 -0.09295014 0.021259459 -0.0579473
000130 e2 a7 4e 3e 09 6e 83 3e ae 85 cd 3b 0a 23 93 be
       0.2018123 0.25669888 0.0062720394 -0.2873767
000140 a1 2b 90 3d 07 eb 0a bd c8 8b 1f bd ff 48 b3 bd
       0.070395716 -0.033915546 -0.038951665 -0.08754157
000150 8b fe 93 3d 19 74 62 be 30 49 2b 3d cd fe f9 3d
       0.072262846 -0.221146 0.041817844 0.122068025
000160 44 d1 42 bd 9b 39 61 3e 2c 67 be bc ab 04 36 be
       -0.047562853 0.21994631 -0.023242556 -0.17775218
000170 99 cd 71 be f0 27 12 bd 75 81 dc bd 07 11 a0 be
       -0.23613586 -0.03568262 -0.107668795 -0.3126299
000180 d4 5a 2b 3c 5a 16 bd bd d0 50 bf bd 3b 66 2c 3c
       0.010458667 -0.09232779 -0.09341586 0.0105224205
000190 b0 53 f1 bd 4a e0 49 be 96 00 40 3d 3e c3 15 be
       -0.1178354 -0.19714466 0.04687556 -0.1462526
0001a0 51 c8 ac be c2 b3 02 be eb 56 ac bd ad 84 44 be
       -0.3374658 -0.12763885 -0.08415016 -0.19191237
0001b0 1b 1b 68 bd e3 23 2b 3e b8 bd 4d 3e 3b 69 9f be
       -0.056666475 0.16712908 0.20091903 -0.31134972
0001c0 5d 99 ca ba 13 2f 5f 3e 7c 53 84 bd 88 96 90 bd
       -0.0015457083 0.21795301 -0.06461236 -0.070599616
0001d0 b5 ef 83 3e e8 24 38 3e 29 f8 1c 3e 8b 65 ff be
       0.2576882 0.17982829 0.1532904 -0.4988216
0001e0 75 96 98 3d fb 39 05 be 3e d3 ed 3c c5 8d 8c bd
       0.074505724 -0.13010399 0.029031392 -0.06862978
0001f0 e7 11 07 3d 0f 9c 64 3e 15 6c ab 3c 8c cb 05 be
       0.032976057 0.22325157 0.020925561 -0.13065928
000200 60 43 88 3f 38 d5 10 3e 50 cd 2f bf 48 9f 89 bd
       1.0645561 0.14143836 -0.68672657 -0.067198336
000210 3d 90 31 be 6b f7 2a 3d 73 67 10 3e a3 0a 82 3d
       -0.17340179 0.041739862 0.14101963 0.06349685
000220 f9 07 be 3d 6a f5 d4 3d 73 e4 a3 3d 81 fb 98 bd
       0.092788644 0.103983715 0.080025576 -0.074698456
000230 fc ff f3 bd 2f e6 25 ba e6 d1 25 bf 60 1a 9b 3c
       -0.119140595 -0.00063285505 -0.64773405 0.018933475
000240 37 e3 96 3d a3 a1 ab be 66 7e a3 bd 6e b7 dc 3d
       0.073675565 -0.33521757 -0.07983093 0.10777174
000250 d6 16 6a be 74 b1 37 3e 4b 8a e7 bd f3 ff 38 3e
       -0.22860274 0.17938787 -0.11305674 0.18066387
000260 14 3e 9b be 66 c8 20 be 98 fa 1e 3c e1 9f 76 bd
       -0.303208 -0.15701446 0.009703301 -0.060211066
000270 70 04 a2 3c 85 84 58 3e 56 02 a7 3e 83 22 25 bf
       0.019777507 0.21144302 0.3261897 -0.64505786
000280 fa f4 6c be db cf 07 3e 0a b3 34 be b5 3b 34 3e
       -0.23140326 0.13262884 -0.17646423 0.17600901
000290 2f 93 39 3e 6d 15 bc bd 88 1e 77 bd 90 93 e9 be
       0.18122552 -0.09183774 -0.06033185 -0.45620394
0002a0 81 8c 0a be 95 4f 43 be 5c c9 99 3d 43 f4 66 be
       -0.1353016 -0.19073327 0.075091094 -0.22554116
0002b0 aa ab 42 3f dc 1f be be eb ff 9e be 3e 6f 28 be
       0.7604319 -0.37133682 -0.31054625 -0.16448686
0002c0 9e 91 66 3b 2b 8a 15 be a8 42 dc be d9 2a a5 be
       0.003518201 -0.14603488 -0.43019605 -0.32259253
0002d0 29 9f 12 3e 80 5c 7b bd 50 b0 f3 bc 1c 41 0c 3e
       0.14318527 -0.06136751 -0.029747158 0.13696712
0002e0 59 1e 12 be 18 c2 27 be 69 ef de 3d 02 42 e2 be
       -0.14269389 -0.16382635 0.108855076 -0.44190985
0002f0 73 c1 0e be fd c8 91 3e a6 58 7c 3d f3 fb 5c be
       -0.13940983 0.28473654 0.06160798 -0.21580486
000300 50 fa 94 3d 29 0b f6 bd 1f 2d 23 3e 6a e5 3d be
       0.07274306 -0.120138474 0.15935181 -0.18544546
000310 7b b0 bb bd af 17 4a bd 0f 27 9f bc 93 5d a7 3c
       -0.0916452 -0.049338993 -0.019427804 0.020430362
000320 34 48 cd bd cb 13 3d be b6 d8 9d bd 97 9f 94 bd
       -0.10023537 -0.18464582 -0.0770735 -0.07257002
000330 c4 9e 9b be 8e 8d a0 be 62 18 cf be bf 04 99 3e
       -0.30394566 -0.31357998 -0.4044829 0.29886433
000340 5f 3c 12 3e f6 f8 06 bd a2 f2 14 be 84 77 37 3e
       0.14280842 -0.03295227 -0.14545682 0.17916685
000350 2d df 32 3d 4c 40 c3 bd 25 42 1d bf 02 64 18 be
       0.04366987 -0.09533748 -0.61429054 -0.148819
000360 0f cf 07 3e c7 a8 0a bc e5 66 44 bf 37 6c 94 be
       0.1326258 -0.008463091 -0.76719505 -0.2898881
000370 78 b1 47 3d 7c 41 fc bd 71 b1 d7 bc a7 d4 33 3d
       0.04875323 -0.12317178 -0.026329728 0.043903973
000380 05 38 ab 3d c8 03 79 be 4a fa 8b bb 6f 82 d7 3d
       0.08360294 -0.24317849 -0.00427178 0.10522925
000390 9e 4d b6 3e 2c ca 2c 3d f8 6d 17 be 85 8e 22 3e
       0.35606092 0.042184994 -0.14788043 0.1587468
0003a0 a7 a5 87 be 08 70 f4 bd ff 06 e4 3d 39 01 c2 be
       -0.2649357 -0.11935431 0.11134147 -0.37891558
0003b0 85 f3 91 be ec 07 b2 bd 47 21 e4 3d 8e 13 f9 bd
       -0.28506103 -0.08692917 0.1113916 -0.12161933
0003c0 9a 82 c9 3d c5 cc bf bd 28 95 4f 3d a5 55 95 bd
       0.098393634 -0.093652286 0.050679356 -0.07291726
0003d0 e6 b8 40 be 09 39 84 be dc a5 73 be b3 b3 d0 3d
       -0.18820533 -0.25824764 -0.23793739 0.10190525
0003e0 45 39 83 3e bd fc 64 bb df 36 55 3d 97 c3 3f bd
       0.2562963 -0.0034940683 0.052054282 -0.04681739
0003f0 e2 0c 71 3e b0 8c 26 3e ac 87 a3 3d 4b ec ae 3d
       0.2354007 0.16264606 0.07984862 0.08541163

fc2.bias f4 [128]
000000 48 a0 5f be 8e 85 fd 3d 6c 78 23 bc 3a 29 2b be
       -0.21838486 0.12378989 -0.009977441 -0.16714945
000010 33 b5 ec bd 82 1a 46 bb 87 39 0b be 4e 79 66 bd
       -0.115579985 -0.0030228202 -0.13596164 -0.05626803
000020 8e 45 8c be 48 0a cc bd 9b f1 16 3d a6 75 3f be
       -0.27396816 -0.099628985 0.036851507 -0.18697223
000030 ce 8b 34 be b4 87 b0 be 03 4a d2 bd 4f 25 00 be
       -0.17631456 -0.34478533 -0.10268023 -0.12514232
000040 22 76 bc bb 53 3e 36 be c0 14 5a bd 21 a1 2d 3e
       -0.005751387 -0.17797212 -0.053242445 0.16955997
000050 cb 8f da be 14 48 3f bd 92 67 c3 3c f0 f7 23 be
       -0.4268783 -0.0466996 0.023853097 -0.1601255
000060 92 3e c1 be 5c f8 40 be d1 77 25 be 8d 10 88 bd
       -0.3774305 -0.18844742 -0.16158988 -0.06643782
000070 88 6f 81 bd da 7d 6a bd 06 af d6 3c 46 62 43 be
       -0.06320101 -0.057248928 0.026206505 -0.19080457
000080 2b de 8d be 5c cb 20 be 81 bc 03 3e 2c df 1d be
       -0.27708563 -0.15702575 0.12864877 -0.15417165
000090 fa 57 49 be 94 cc 7a 3d fb dc bb 3c 31 8f b0 bd
       -0.19662467 0.061230257 0.02293252 -0.086210616
0000a0 9f dd 6e 3e 62 bb 5a bd 97 11 c7 3d 28 a5 fa 3c
       0.23326729 -0.05340136 0.09720152 0.03059633
0000b0 ea 9f fd 3c c8 f9 a4 be a2 11 43 3d 8e 87 12 be
       0.030960042 -0.32221818 0.047624238 -0.14309523
0000c0 ec d4 39 ba 4d f7 5f 3d ee 29 18 be d6 35 c9 bd
       -0.0007088918 0.054679204 -0.14859745 -0.098247215
0000d0 25 85 0a bd 63 c7 64 be af 22 3a be 98 1b 3e be
       -0.033818383 -0.22341685 -0.18177293 -0.18565214
0000e0 40 7d 47 bc de 88 26 be d9 9f d8 bd 41 c2 02 3d
       -0.012175858 -0.16263148 -0.105773635 0.031923536
0000f0 49 d2 0b be c8 15 01 3b 3e 41 85 be d1 ed d6 be
       -0.13654436 0.001969682 -0.26026338 -0.41978315
000100 a2 d9 7d bd 1b 87 14 be 7e ac 91 3c d9 4e 48 be
       -0.06197513 -0.14504664 0.017782446 -0.19561328
000110 75 c6 79 bd 0b 5e e9 bd 14 a4 5d be d4 12 a5 3c
       -0.06098028 -0.113948904 -0.21644622 0.02015058
000120 77 12 04 be 4a 3a d9 bd 39 d9 ba 3e eb 1c d2 3c
       -0.12897669 -0.10606821 0.36493853 0.025648555
000130 13 4a 5b be f7 7f f0 3d 28 55 cc 3d 8b 28 81 be
       -0.21414976 0.11743157 0.0997718 -0.25226244
000140 b9 c0 4e bb 19 a7 dc bd 88 53 53 3d 4e 6e 85 be
       -0.0031547977 -0.10774059 0.051593333 -0.26060718
000150 1b 96 b8 3d bf 8c c1 bd de 5a 09 be f7 7c aa bd
       0.09013005 -0.09450673 -0.1341357 -0.083246164
000160 27 1a d0 3b 59 71 a3 bd 3e a3 17 be af 2b 07 bd
       0.006350774 -0.07980604 -0.14808366 -0.033000644
000170 ac 0e 2d bd c2 a3 50 3d 61 dd 0c 3d 7b 72 cc 3d
       -0.04225032 0.05093742 0.03439081 0.09982773
000180 b3 84 28 be 14 81 42 be 5b 78 12 bc 86 42 c4 be
       -0.1645687 -0.18994552 -0.008939828 -0.38332003
000190 ea 8f 6a bd 8f f0 2c 3e f6 cf 1b bd c5 5e 79 3d
       -0.057266153 0.16888641 -0.038040124 0.060881395
0001a0 eb 47 34 3d f5 fd f8 3d df b4 1d 3d 4c 35 a5 be
       0.0440139 0.121578135 0.03850257 -0.32267225
0001b0 37 0d 4b be f7 9f ae bd 2f b9 95 3e 88 9e 2c be
       -0.1982926 -0.085266046 0.29242846 -0.1685735
0001c0 d9 47 b3 bd c9 9f 17 3d 18 8c b6 bd a2 90 46 3d
       -0.08753938 0.037017617 -0.089134395 0.048477776
0001d0 35 2d bc bd d4 b0 08 be 97 12 c1 be 68 bd a6 3b
       -0.0918831 -0.13348705 -0.37709495 0.005088497
0001e0 45 22 b1 3b 41 ea 3a bd 24 78 8e be 12 0e 79 be
       0.0054056966 -0.04563356 -0.27826035 -0.24321774
0001f0 9e a0 e5 3d 64 7c 9f 3c 36 6e 23 be 30 2d af bd
       0.11212276 0.019468494 -0.15960011 -0.08553541

fc3.weight f4 [128, 128]
000000 cc f3 d1 3b 90 24 42 3b 42 04 6b bc 57 79 92 3b
       0.0064072367 0.0029623844 -0.014344277 0.0044700312
000010 83 ea 77 bb d0 71 61 3c 0d 97 85 bb f4 7d 77 3c
       -0.003782899 0.013760045 -0.0040768445 0.015105713
000020 c9 db 85 bb bc 03 de 3b ef 3b 94 3a b0 3d 5c ba
       -0.0040850383 0.0067753475 0.0011309366 -0.0008401526
000030 08 56 2f bc 67 1c 58 39 15 ab e5 bb a7 b2 8f 3c
       -0.010701664 0.00020609946 -0.00700892 0.017541243
000040 5e ee 90 3c fb 07 08 3a 75 f5 e2 3a b9 57 de bb
       0.017691787 0.00051891775 0.0017315584 -0.0067853597
000050 9f e8 f5 39 a4 1e c2 3c 3b 94 5b 3c 27 b7 79 3b
       0.00046903358 0.023696251 0.01340204 0.0038103552
000060 be e5 72 bb 3c 95 7e 37 2d 12 b3 3b b1 d8 f0 bb
       -0.0037063207 1.5174326e-05 0.005464813 -0.0073500504
000070 54 98 80 3a 9f ee 09 bc 44 4a 38 3b ea b3 8b 3c
       0.0009811022 -0.008418708 0.0028120438 0.017053563
000080 64 6f 7a 3b 0b 52 6b 3c 01 4a 40 3b 73 a0 a3 3c
       0.0038213367 0.014362822 0.0029340985 0.01997397
000090 a1 a8 59 bc 6f 58 f6 3b a4 93 02 3c 97 85 7e bc
       -0.013284833 0.0075178663 0.007969771 -0.01553478
0000a0 05 7e 5d 3b 81 58 5b 3c 82 0c dd 3b e2 bf 96 39
       0.0033797037 0.0133878 0.006745876 0.00028753193
0000b0 1d a4 9f 3b 0c bd 05 3b 1c 5f ad 3b 9d fc 29 3b
       0.0048718587 0.002040687 0.005290879 0.0025937923
0000c0 07 f4 2d 3b f8 e7 c0 3b ef 84 32 bb 0c ff d0 3b
       0.0026543157 0.005887028 -0.002723988 0.00637806
0000d0 63 46 8a 3b a8 cb c6 ba 4a 25 4e bb b2 e1 9b 3b
       0.0042198165 -0.0015166895 -0.0031455331 0.0047571296
0000e0 df 9b 4e 3a 74 a4 f6 bb f4 c9 30 bb 02 c0 6a bc
       0.0007881503 -0.0075269286 -0.0026975842 -0.014328005
0000f0 2e 01 b9 bb 8d ab 0e bc 79 da 95 bb 30 20 f3 bb
       -0.0056458926 -0.008707893 -0.004573163 -0.0074196085
000100 fb 54 f4 3a 5b 38 8d bc df f4 56 bc 4c 4d 6a 3b
       0.0018641049 -0.017238786 -0.013119905 0.003575164
000110 75 50 a0 bb cf d7 68 bb fb d7 bb 3b 91 a7 93 bc
       -0.0048924037 -0.0035529023 0.005732534 -0.018024238
000120 8f 3d 3e 3c d9 00 1a bc 2d 9d 3f bb 86 51 fb 3a
       0.011611356 -0.009399616 -0.0029237971 0.0019174076
000130 3b 51 21 3c 4b f2 be 3b 43 ab e3 bb 42 b8 c3 bb
       0.009846027 0.0058272234 -0.006947906 -0.005972893
000140 26 5f 8d bc 43 83 50 3c eb 65 c5 ba b0 9b 9a b8
       -0.017257284 0.012726608 -0.0015060281 -7.372291e-05
000150 74 8a e5 3a 8b 1f f5 3b 79 e2 0d 3a a1 62 00 3b
       0.0017512576 0.007480567 0.000541247 0.0019590037
000160 6c df 10 bc e3 87 51 bb 1b 7d 05 3c da 96 67 3a
       -0.00884233 -0.0031971864 0.008147503 0.00088344293
000170 93 88 18 3b fa 53 b7 bb 98 f2 dc 3b 1f 8f 71 bc
       0.0023274764 -0.0055947276 0.0067427866 -0.014743595
000180 43 3c 05 3c a8 2d 13 bc 9f 23 dd bb d8 06 5f ba
       0.008132043 -0.008983053 -0.006748631 -0.00085077947
000190 86 b7 a7 bc c8 86 0e bb 40 ab 54 bb b6 e6 d5 bc
       -0.020473253 -0.0021747816 -0.0032450706 -0.026110988
0001a0 5f be d2 b9 be fa aa b9 e7 5d 20 3c 20 46 a5 ba
       -0.0004019616 -0.00032611744 0.009788013 -0.00126094
0001b0 ae 98 51 bc 57 e5 f9 b8 7d 6a be bb 0e fe af 3b
       -0.012792749 -0.00011915963 -0.0058110342 0.005370862
0001c0 1a 1c 04 3b 05 34 d3 39 d8 e6 5f 3b 4b 23 4c 3c
       0.0020158351 0.00040283814 0.0034164693 0.012459586
0001d0 de 6d 18 3c b0 1d ed bb 1d a0 b4 3b 69 46 2e 3c
       0.009303538 -0.007236205 0.005512251 0.010636904
0001e0 67 f5 e7 ba 4c a8 85 bc e0 bf 73 bb 9a e4 3e bb
       -0.0017697037 -0.016315602 -0.0037193224 -0.0029127956
0001f0 fe 88 82 bc 26 07 dc bb 07 67 8c 3b 7d e2 1b bc
       -0.015934464 -0.0067147193 0.0042847428 -0.009514448
000200 25 15 de 3b a3 48 73 ba c2 a8 05 3c fd 97 44 bc
       0.006777423 -0.0009280538 0.008157911 -0.011999127
000210 44 90 72 ba 75 c4 e9 3b f4 59 19 3c 08 b3 a7 3c
       -0.00092530646 0.007134015 0.009359825 0.020471111
000220 20 34 5f bb 1c de 5a bb 59 68 ab 3c 76 d8 9d bb
       -0.0034058169 -0.0033396548 0.02092378 -0.004817064
000230 48 ad 4e bc c6 b1 01 3c bd 26 41 bc 19 53 1f 3b
       -0.012614556 0.00791592 -0.011789021 0.0024311005
000240 f1 6a 69 3c 1b 32 36 3b a5 74 38 bc f6 e5 bf 3a
       0.014246688 0.0027800861 -0.011258279 0.0014640677
000250 7c c7 d0 bb a9 ca b0 3b 2f 6d f8 3a 32 fb 2d 3b
       -0.0063714366 0.0053952527 0.0018953438 0.002654743
000260 7a 56 dc 3b 6e 3e c4 3b 72 22 b4 bc 45 3e 55 3b
       0.006724176 0.0059888875 -0.021989081 0.0032538336
000270 93 c8 19 3c c3 27 8c 3a 07 a2 50 3b 77 38 47 bc
       0.0093861995 0.0010693002 0.0031834857 -0.012159458
000280 bf 41 70 3b bb 4d 45 3b 24 93 2d 3c 15 ad e4 3a
       0.0036660281 0.0030106145 0.010594163 0.0017446602
000290 00 8d 95 3b 21 24 9f 3c 49 31 ab ba dd 91 7d bc
       0.0045639277 0.019426407 -0.0013060953 -0.015476671
0002a0 52 a2 d1 3b bd 0d 57 3c 11 82 b3 3b 15 5e f1 3b
       0.006397524 0.013125834 0.0054781516 0.007365952
0002b0 d6 07 a8 ba d5 25 ec 3b 49 bf 64 3c 54 a9 85 ba
       -0.0012819718 0.0072066584 0.013961622 -0.0010197558
0002c0 f5 43 2f 3b 7f 2a 72 39 6b 64 d3 bb 3c 32 9b bb
       0.0026743386 0.0002309475 -0.0064511797 -0.004736213
0002d0 8b ce b7 3b 6c 8b b8 bb 9b 6c 61 ba 2a 14 ea 3b
       0.0056093386 -0.0056318548 -0.00085992523 0.007143517
0002e0 72 64 ee bb 93 ec c5 ba 95 0b d2 bb c4 b2 26 3c
       -0.0072751576 -0.0015100412 -0.006410072 0.010174457
0002f0 f6 d4 92 ba 2e e6 a7 bb 0c 05 2c bb 55 e0 c3 bb
       -0.0011202383 -0.005123875 -0.0026248125 -0.00597767
000300 68 a8 d5 ba df da 1d bc a0 71 16 bc be 35 d9 bb
       -0.0016300799 -0.0096347025 -0.009182364 -0.006628721
000310 25 3b 25 3b 63 16 90 bb d5 81 97 ba 12 57 11 3c
       0.0025212255 -0.0043972 -0.0011559079 0.008870857
000320 0f 0c 56 3c cc de 98 3b 15 02 dc 39 c9 cd 28 38
       0.013064398 0.0046652313 0.0004196322 4.0245974e-05
000330 01 53 8c 3c a8 8e 83 bb 0e e3 ca bb 59 3c c3 3b
       0.017129423 -0.0040148087 -0.006191618 0.0059581217
000340 0f 6a 40 bb a1 b4 59 bc be ae 74 3b 4d 37 13 3c
       -0.002936009 -0.013287694 0.00373356 0.008985353
000350 72 ae 91 bb 1f f1 22 3c e3 0f f6 3a d1 85 2f bb
       -0.0044458443 0.009945183 0.0018773045 -0.0026782642
000360 ec f1 e5 bb 37 d8 98 3c 25 53 87 bb 44 06 57 3b
       -0.0070173647 0.018657787 -0.0041297846 0.003281013
000370 4f 6d 4b bb fa 19 2e bb a3 4d 4a 3c 69 36 aa bb
       -0.0031040495 -0.0026565776 0.012347612 -0.0051944745
000380 79 eb ac bb 32 56 37 3c 4b 3d 94 3b 40 72 aa 3b
       -0.005277094 0.011189984 0.0045239083 0.005201608
000390 d6 fe 46 bc 98 d3 d1 bb 83 5f 83 bb 04 5c a9 bb
       -0.012145719 -0.006403398 -0.0040091886 -0.00516844
0003a0 04 f4 ca 3b 66 f9 0e bc af 5c 39 bc 00 cc a8 bc
       0.0061936397 -0.008726453 -0.011313601 -0.020605087
0003b0 c7 5f 45 bc a2 24 f4 3b 61 3b ec bb 89 fe cd bb
       -0.012046761 0.007450656 -0.007209227 -0.0062864465
0003c0 c1 1b 5d 3b 4c 34 21 3b ca 24 02 3b 49 ad 0d 3c
       0.0033738466 0.0024597822 0.0019858354 0.008647271
0003d0 1d 06 d4 bb 88 ac ae ba 5f bf 51 bc a2 c0 94 3b
       -0.0064704553 -0.0013326565 -0.012801974 0.004539565
0003e0 80 3b ef 3a 79 d4 a8 bc 18 c7 a8 3a c2 43 a2 ba
       0.0018251985 -0.020609127 0.0012876717 -0.0012379813
0003f0 79 32 8e 3b 1f 5d 04 3b 7b e8 85 3b af 03 38 3c
       0.004339513 0.0020197106 0.0040865517 0.011231347

fc3.bias f4 [128]
000000 25 91 ef bb ca e1 36 3c 80 c9 13 bd bd 6f 84 3a
       -0.0073110037 0.011162231 -0.036080837 0.0010104101
000010 97 34 35 bd 44 ab 39 3d 81 0c 8f bc 3f 37 0c 3c
       -0.044239607 0.045329347 -0.017462017 0.008558094
000020 f3 25 5d 3c 07 b9 1e bd 07 1b 3b 3d 03 b2 5d be
       0.013497817 -0.038750675 0.045680072 -0.21649937
000030 86 7d e2 3c f0 2e 63 3d 91 fb b2 bc 94 77 90 bb
       0.027647745 0.055464685 -0.021848472 -0.004408786
000040 ce 49 1a 3a 91 ab 77 be 80 15 7e be ba 60 73 3b
       0.00058856315 -0.24186541 -0.24812889 0.003713651
000050 62 3c 84 bc 3e 82 28 bc 06 a1 28 bc 5f 00 42 be
       -0.016142074 -0.010284958 -0.010292297 -0.18945454
000060 32 6c b1 bc 52 ba 98 be 49 f9 aa bc 06 1a 91 3c
       -0.021658037 -0.2982965 -0.020870822 0.017712604
000070 df 38 96 be 7d 7e d5 bc 79 f1 96 3b b8 39 d5 bc
       -0.29340264 -0.02606129 0.0046064225 -0.026028499
000080 33 ab 30 bd 15 30 0c bd ae 18 58 bd db 09 20 3b
       -0.04313202 -0.034225542 -0.05275791 0.0024419937
000090 03 e0 4a be ad 70 ad 3c 7f 8e 21 be 1f fb 7b 3d
       -0.19812016 0.021171892 -0.15777014 0.061518785
0000a0 22 5b 87 bd 52 fd 8d be 0d 13 f3 3c cb c0 c9 bb
       -0.06609179 -0.2773233 0.02967217 -0.006157016
0000b0 4d a1 8e 3c 7d a3 5c be b4 e1 44 bc 23 67 bc 3b
       0.017410899 -0.21546741 -0.012016702 0.0057495995
0000c0 69 68 02 bb 9e eb 98 3c 7b 16 d4 3c e9 74 d8 bc
       -0.001989866 0.018667039 0.025889626 -0.026422935
0000d0 47 66 f0 bb 0e 42 9c 3c 04 41 ef 3c fc 6b 97 3c
       -0.007336411 0.019074466 0.029205807 0.018484108
0000e0 36 fc 3a bd 24 31 8d 3a f9 de ce 3b 3d cb b8 3c
       -0.045650683 0.0010772091 0.0063132015 0.022557849
0000f0 fe 84 6e be ff cf 0e 3d 80 58 56 ba c9 56 84 3c
       -0.2329292 0.03486633 -0.00081766397 0.016154664
000100 05 5c 47 3d 24 38 5b 3d 50 8e 52 3c 0f 74 ef bb
       0.04867174 0.053520337 0.012851313 -0.0073075364
000110 6c 5d 6b 3b 73 94 30 bd aa f6 49 3b 51 6e 17 bb
       0.0035913838 -0.043110322 0.003081719 -0.0023106525
000120 90 91 64 bc 3e 0f 53 be fc ef c7 bc 44 85 43 3c
       -0.01395072 -0.20611283 -0.024406426 0.0119336285
000130 e1 fc fe bb 91 e6 09 bd 64 69 14 bb 61 c6 2d bd
       -0.0077816104 -0.03366715 -0.0022645826 -0.042425517
000140 4d 8d 1d 39 d9 1d 94 3c e6 ef 1a bc 80 e3 9c be
       0.00015025325 0.018080639 -0.00945661 -0.3064232
000150 fa a3 1e 3c 03 0a e8 bc 0d 97 23 be 8e 5f fe bc
       0.00968265 -0.028325086 -0.1597559 -0.031051423
000160 19 7e 1f bd 99 c3 1b 3d e1 3f 06 bd 00 20 ca bc
       -0.038938615 0.038028333 -0.032775763 -0.024673462
000170 2f fa 0b be 33 44 9a bd ad a2 bc be a9 fc 30 3b
       -0.13669656 -0.07532539 -0.36842862 0.0027006066
000180 22 aa 05 3d ac 99 88 3c 7f 11 83 3c 64 77 a3 bb
       0.032632954 0.016674839 0.015999554 -0.0049885977
000190 83 f6 d4 bc 42 3f bd 3c ef 4f 5b 3b bd 84 d9 bd
       -0.025996452 0.023101453 0.0033464392 -0.10621021
0001a0 4f 60 c0 3c 52 1d 26 3d dd 29 02 ba ef fd 33 be
       0.023483424 0.040555306 -0.00049653446 -0.17577337
0001b0 45 2e 00 bc 7a 91 14 3d 78 05 db 3c 1b 17 d9 3c
       -0.0078235315 0.03627155 0.026736006 0.026500275
0001c0 97 be 01 3d 7a 87 19 3c fc 08 d0 3b d3 41 ed 3b
       0.0316759 0.009370679 0.0063487273 0.007240513
0001d0 3e 0a 03 bc d8 d0 14 bd e4 77 30 3c b1 dd 15 bd
       -0.007998047 -0.03633198 0.010770772 -0.036588375
0001e0 56 06 1d bd 1d 98 b1 bc a2 41 0e 3d f6 ca c5 ba
       -0.03833612 -0.021678979 0.03473056 -0.0015090394
0001f0 c6 2b 2a bd ce 79 0c 3d a7 20 fc 3b 95 2e 11 3d
       -0.04154565 0.03429585 0.007694322 0.035444815

fc4.weight f4 [1, 128]
000000 d1 5f d8 38 8b c3 b1 39 a7 d7 83 3c 54 1a 65 37
       0.0001031753 0.00033905762 0.016094042 1.3655594e-05
000010 36 b3 b2 3a d1 b4 f3 b9 5b 3e 3e bc a9 0b ab 38
       0.0013633731 -0.0004648329 -0.011611546 8.156087e-05
000020 23 2b fa 3a e6 79 16 3a 69 d1 ab 3c db 8b 8e bc
       0.0019086342 0.000574021 0.020973878 -0.017400673
000030 16 36 26 ba cc e1 2b 3a b3 14 47 b8 80 09 4a ba
       -0.0006340457 0.00065567787 -4.7464575e-05 -0.0007707104
000040 3d 4f b3 ba 92 76 28 bd cb 94 14 bd fa c6 80 3b
       -0.0013680231 -0.041128702 -0.036274713 0.00392997
000050 27 b1 8e 39 62 58 12 ba e4 41 57 39 ac 49 d6 bc
       0.0002721634 -0.0005582628 0.00020528544 -0.026158176
000060 c6 5c 43 39 07 5f b0 bc 28 46 7e 3a 06 64 8c b5
       0.0001863121 -0.021529688 0.0009699785 -1.0459923e-06
000070 be 60 7e bc 96 b2 f1 39 8d a2 1d b7 b0 fa 25 3d
       -0.015525995 0.0004610016 -9.395776e-06 0.040522277
000080 26 31 f9 39 e2 4a 1c ba b7 24 19 3d be 49 0e 3d
       0.000475296 -0.0005962086 0.03738853 0.034738295
000090 c5 e1 8d bc 2b 90 8a 39 dc 5f b9 3c a5 11 73 3d
       -0.01731957 0.00026428825 0.022628717 0.059343
0000a0 d8 17 56 ba 4f 69 36 bd ef 93 7d 39 ec cf 32 3a
       -0.0008167005 -0.044534024 0.0002418307 0.0006821144
0000b0 0d 64 2e 3a ff 01 a3 bc 72 b6 c4 39 64 f4 f7 b8
       0.0006652482 -0.019898413 0.00037519966 -0.00011823399
0000c0 9e e4 84 38 4d ab 66 3a 23 ae b2 39 ef d5 81 ba
       6.336834e-05 0.00087993295 0.00034080548 -0.0009905676
0000d0 92 38 cf b9 60 8b 03 ba 70 29 28 3a 4d 2d fb 39
       -0.00039524265 -0.0005018022 0.0006414866 0.00047908202
0000e0 53 71 a3 b9 78 00 19 38 fb 2f 8b 39 e7 82 bd 39
       -0.00031174216 3.647848e-05 0.00026547894 0.0003614642
0000f0 c8 d8 63 3d 7e f9 bc 3a 3b 8e 4d b9 4e 3c ef 3a
       0.05562666 0.0014417616 -0.00019603308 0.0018252225
000100 97 a5 c2 39 9a b3 8e 39 55 41 c5 3c e4 d1 0e ba
       0.00037125938 0.00027218164 0.024079004 -0.0005448146
000110 cc 14 b0 b8 34 20 5f ba ea a4 c6 b8 d7 43 4a 3a
       -8.396208e-05 -0.00085115735 -9.4720934e-05 0.00077157974
000120 c8 60 c3 b9 66 77 28 bd 85 bf 31 b9 b8 d6 c4 3a
       -0.00037265406 -0.041129492 -0.00016951382 0.0015017604
000130 26 bf 90 3a bc ce 1d 39 b8 9f c3 3a ae 3e 9c 3a
       0.0011043295 0.00015049701 0.0014924919 0.0011920535
000140 ba 0c 8b 3a 92 25 e6 39 b8 b2 fa 3a 05 7a 13 bd
       0.0010608651 0.0004389701 0.0019126749 -0.03600504
000150 9a 83 6c 3a ee 95 8c ba a4 24 52 bd a1 3a 1d ba
       0.00090222957 -0.0010725835 -0.051304474 -0.0005997811
000160 97 eb 37 3d e5 18 b8 b9 73 5f b7 b8 f0 ec eb 39
       0.04490241 -0.00035113763 -8.743899e-05 0.00044999225
000170 18 a4 72 3d 3e 37 1c 3d d9 3a 32 bd 14 5c d3 38
       0.059238523 0.03813862 -0.043513153 0.00010078415
000180 97 94 97 39 40 2b 5c ba 18 df 88 3a 97 52 25 3a
       0.00028911672 -0.0008398779 0.0010442464 0.00063065573
000190 1d 64 53 b7 91 ed f7 37 75 fc e3 39 65 57 57 bc
       -1.25998895e-05 2.955532e-05 0.0004348491 -0.013143395
0001a0 8a 6d a0 39 9c 56 90 3a 6a aa 10 3a a8 74 2f bd
       0.0003059919 0.001101214 0.0005518558 -0.04283586
0001b0 e5 42 91 b9 6e a5 35 3a af 54 82 3a 03 d1 f7 b9
       -0.00027706395 0.0006929253 0.000994345 -0.00047267237
0001c0 83 21 c7 39 b1 46 f6 b8 2a a1 91 39 c2 40 77 3a
       0.00037981206 -0.000117433614 0.00027776632 0.0009431952
0001d0 96 c4 c5 39 2e ad f2 b9 26 8b b8 39 4f b0 99 39
       0.00037721236 -0.00046286866 0.00035198889 0.00029313794
0001e0 6f a9 b0 39 29 d6 32 b9 54 08 d8 b9 12 47 73 39
       0.00033695574 -0.00017055184 -0.00041204935 0.00023200762
0001f0 fa a1 e2 39 50 19 65 3a 7f cf cc 3c 41 16 1d 3a
       0.0004322676 0.00087394286 0.025001286 0.0005992391
