tennis_best_model_actor.pth (torch_old, 147218 bytes, 8 tensors)

fc1.weight f4 [128, 24]
000000 97 59 e2 bd 80 18 d8 bc 0f 8f 8f 3c 6f 3f c8 3d
       -0.11052244 -0.02637887 0.01752427 0.09777724
000010 2f 32 f1 3d 15 8a 54 be 94 30 7d bb 07 c0 ab 3d
       0.1177715 -0.20755799 -0.003863369 0.08386236
000020 dc 25 24 be ca ae da bd 30 91 5f bd af cc c6 bd
       -0.16030067 -0.106778696 -0.05458182 -0.09707009
000030 53 12 a2 3d 51 2f bd bc cf 4e a8 bd db 8c 1f bc
       0.07913651 -0.023093851 -0.082181565 -0.009738172
000040 dd be 5d bd d5 41 7c bd cb a0 6a 3d 64 e7 be 3d
       -0.0541371 -0.06158622 0.05728225 0.09321478
000050 25 c4 aa 3d 0a b0 65 3b ec 2f fa 3d e8 36 dd 3d
       0.08338193 0.0035047554 0.122161716 0.10801488
000060 77 40 b2 3d 98 22 92 3e ef 8e fc 3b 0b b6 ce 3d
       0.08703702 0.28542018 0.0077074687 0.10093316
000070 a3 66 58 bd ae 01 df 3e 83 aa 10 bd 2f 30 cb 3d
       -0.052832257 0.4355597 -0.035318863 0.099213
000080 96 d1 34 3e 01 e6 e3 3e cf 4c d8 bc 81 db a9 bc
       0.17658076 0.44511417 -0.026403813 -0.02073455
000090 fd db 2a 3e 7b 65 c1 3e 4a 57 27 3c ad 99 be bd
       0.16685481 0.37772736 0.010213682 -0.09306655
0000a0 1e 04 1d 3e 7b 6f 5e 3e 6c 63 3e 3c 3f 58 0d bd
       0.15333602 0.21722214 0.011620384 -0.034507986
0000b0 69 46 3c 3c 9e 62 b4 3e 57 b7 5a 3d 6a f4 21 3d
       0.011491396 0.3523149 0.053397503 0.039539732
0000c0 9d bd a8 3d 12 99 b3 be 04 e3 7b 3d a7 e1 90 be
       0.08239291 -0.3507772 0.061495796 -0.2829716
0000d0 15 a8 8d bd 9c 4c 04 be b6 db 8a 3c ed 47 9c be
       -0.06916825 -0.12919849 0.01695047 -0.30523625
0000e0 69 04 0c 3e af 80 8c be 81 88 a8 3d 53 0c 63 bd
       0.13673557 -0.27441928 0.08229161 -0.055431675
0000f0 07 8f f1 bd 5a 60 2a be 60 0a 0f 3e 6a c8 f5 bc
       -0.117948584 -0.16638318 0.13968801 -0.030002791
000100 15 52 fe 3d 30 d9 83 be 9f bf 7c 3d 03 d9 e9 3d
       0.12418 -0.25751638 0.06170618 0.11418345
000110 67 7f 2f be 43 c2 71 bd 4c d4 52 bd 81 70 29 3e
       -0.17138444 -0.059023153 -0.051471993 0.16546823
000120 e8 d2 a3 3d 9c 88 99 be e6 1f 90 bc 3c e9 71 3e
       0.079992115 -0.29987037 -0.017593335 0.23624128
000130 fd 72 66 bc d5 9b 50 be 35 f7 05 3c 93 0f 7b 3e
       -0.014065501 -0.20371945 0.0081766145 0.2451766
000140 e1 36 fb 3d ed 73 0a be 9f 7e d5 bd a7 34 38 3e
       0.12266327 -0.13520785 -0.10424542 0.17988835
000150 8b 3f 05 be e2 28 3e be 57 c3 09 38 42 a1 6c 3e
       -0.13012521 -0.18570283 3.284527e-05 0.2310839
000160 46 e3 3d 3e 95 60 96 bb 44 65 cf 3d 31 34 03 3e
       0.18543729 -0.00458915 0.10126737 0.12812878
000170 61 64 cb bd 03 18 09 bd fb fb d6 3c 68 ab 89 3d
       -0.09931255 -0.033470165 0.0262432 0.06722146
000180 92 52 69 3c c6 8f 27 3e f7 29 b0 bc 18 b2 04 3e
       0.014240878 0.16363439 -0.021504385 0.12958562
000190 4f 67 75 bd 09 1a 8d be d0 16 91 bd 4c 1c 6c 3e
       -0.059912976 -0.27558926 -0.07084429 0.2305767
0001a0 3e 58 3a 3b 44 fd 8e 3e f8 8a 19 3d da d5 28 3e
       0.0028433944 0.279276 0.037486047 0.16487828
0001b0 af 5b 66 be 60 6c 10 be ce d2 0f 3d 81 59 40 3e
       -0.22495912 -0.14103842 0.03511315 0.18784143
0001c0 6d 6c b0 3d e5 33 4a 3e 95 83 14 3d 5d f0 c4 3c
       0.086144306 0.19746359 0.0362583 0.024040395
0001d0 2f f8 40 be c5 98 4f be bc e2 08 3d 58 53 8f 3d
       -0.18844675 -0.2027312 0.033419356 0.069983184
0001e0 55 83 56 3e 30 27 21 be 6b cc e3 bc d2 76 1e 3d
       0.20948537 -0.15737605 -0.027807435 0.038687535
0001f0 80 54 ee bc 5a 0f 4b be bd 7c 2d bd f9 7e ba bc
       -0.029093027 -0.19830075 -0.042355288 -0.022765623
000200 35 a9 52 3e 82 77 40 be c5 f5 31 3d 21 62 e2 3d
       0.2057236 -0.18795589 0.043447275 0.11053873
000210 52 19 54 be e3 2c 25 be 53 15 87 3d 2f 57 3c 3d
       -0.20712784 -0.16130404 0.06595864 0.045981582
000220 c2 e9 04 3e 98 21 88 be 66 99 c6 3c ff 70 06 3d
       0.12979797 -0.2658813 0.024243068 0.032822605
000230 e3 02 1f be f4 b1 86 bd c8 57 e0 bd d7 0c c8 3d
       -0.15528445 -0.065769106 -0.10954243 0.09768074
000240 bd 0d bf 3d 32 0e 83 be d7 46 33 3d 8c 55 23 3e
       0.09328792 -0.25596768 0.04376873 0.15950602
000250 ab 0b 10 3e 8c 18 35 bc a7 8e 16 bd 22 89 7a 3e
       0.14066951 -0.011053216 -0.036757138 0.24466375
000260 4e 99 a8 bd 60 03 7f be d4 aa a5 bd 75 e6 ba 3d
       -0.082323655 -0.24903631 -0.080892235 0.091259874
000270 9c 4a a4 3e 7f 9f c7 3d a0 00 f9 bd 6f 1e 1d 3e
       0.32088172 0.09747218 -0.12158322 0.1534364
000280 57 ee 63 bd 71 f7 91 be 2d c4 27 bd b6 57 9b 3d
       -0.05564722 -0.28509095 -0.040958572 0.07585089
000290 1b ff 7f 3e fe 72 22 3d 68 e0 8c 3b c2 68 08 3e
       0.24999659 0.039660446 0.0042992122 0.13321212
0002a0 99 1c fc 3d f1 ca 1b bd c2 85 5d bd 9e ef b0 3d
       0.12310142 -0.038035337 -0.05408264 0.08639453
0002b0 9a 39 51 3d d6 30 7d bd 04 74 13 3d 7e 39 15 3e
       0.051080324 -0.06181415 0.035999313 0.14572713
0002c0 e8 38 93 3d 09 f5 9b 3d b8 56 6b bd d9 7d 96 3d
       0.071885884 0.07615096 -0.05745575 0.07348222
0002d0 72 cc fd bd bf 2c 81 3e fa ba 56 3d 1b 54 d7 3d
       -0.123925105 0.2522945 0.05242441 0.10514089
0002e0 53 14 17 3e 90 15 e7 3c 71 22 d1 3c fb e0 9c 3b
       0.14753847 0.028208524 0.025529118 0.004787562
0002f0 ef 9d 2f bd 08 3e 05 3f 45 ff 09 bc 32 4b 1f bd
       -0.042875227 0.5204778 -0.008422677 -0.03889007
000300 df 4f 4b bd 6f 20 5f 3e 12 09 44 3d e6 b3 0f be
       -0.049636718 0.21789716 0.047860213 -0.1403347
000310 ba 00 60 be 14 eb 98 3d ef b2 55 3c d2 6c 1e be
       -0.21875277 0.074667126 0.013043149 -0.15471199
000320 aa ef 8e bc ff ca 9b 3d 5b 3b 72 bd 54 f8 4b be
       -0.017448265 0.07607078 -0.059138637 -0.19918948
000330 f7 d8 ec bb 3d 4b 37 bc 5d a4 8a bd 43 85 93 be
       -0.0072280127 -0.011187372 -0.06769631 -0.28812608
000340 60 fc e5 3d 84 d9 e3 3d 60 01 df 3b 35 e5 3f be
       0.11229777 0.11125472 0.006805584 -0.1873978
000350 e6 27 ee bc e6 04 88 3d ec cc c1 bd 68 11 1f be
       -0.02907176 0.06641559 -0.09462914 -0.15533984
000360 db db 55 bd 1b 06 ca be b3 fd 99 bd a0 61 c5 bd
       -0.052211624 -0.39457783 -0.075190924 -0.09637761
000370 94 e4 69 bd 1a 55 78 bd 02 26 81 3c c5 5b 45 be
       -0.057102755 -0.060628034 0.015765194 -0.19273289
000380 46 09 29 3e d7 38 cd be 6e cb b3 bd 70 e6 7b bd
       0.16507444 -0.40082428 -0.087790355 -0.06149906
000390 4c 00 3c bd 9d fa 0b 3e 5e 7e 56 3d 9a 1c 03 3d
       -0.04589872 0.1366982 0.052366607 0.0320097
0003a0 c3 71 02 3e 83 1d cb be f5 40 ef 3c 00 ab 39 3e
       0.12738709 -0.39670953 0.029205779 0.18131638
0003b0 b1 bf 54 be 2c e7 cd 3e 75 44 e9 3c 27 2b 89 3e
       -0.2077625 0.40215433 0.028475026 0.26790735
0003c0 a4 37 b6 bc 26 31 b8 3e d6 e2 0d 3d 15 8f 92 be
       -0.022243328 0.35974997 0.034640156 -0.28624788
0003d0 97 08 80 3e c1 2b bb 3d d3 b7 c7 3b 86 3f 29 be
       0.25006554 0.09139205 0.0060949116 -0.16528139
0003e0 e5 a5 74 3d 73 ab 66 3e fa 75 0a bc 52 55 31 be
       0.05972852 0.2252634 -0.008450979 -0.17317703
0003f0 3c 2f 19 3e 35 a3 67 3e 83 1d 3e bd 8c 86 58 be
       0.14959425 0.22620852 -0.046414863 -0.21145076

fc1.bias f4 [128]
000000 2e 02 7b 3d 4c 36 a1 be 07 63 ac bd a8 a2 ef 3d
       0.061281376 -0.31486738 -0.084173255 0.11700946
000010 74 3e ea 3d 4a 51 dc bc da 3b 59 3e 66 8a b6 3d
       0.11437693 -0.02689423 0.21214238 0.08913116
000020 09 40 13 bd a7 dd ef 3b 6e 15 2b bd a3 54 ca 3d
       -0.03594974 0.007320124 -0.041768484 0.098794244
000030 e3 42 61 bd 23 82 87 bd bf 85 4c 3e 6a c9 79 3e
       -0.05499543 -0.066166185 0.19972895 0.2439324
000040 78 b5 94 bd a2 8c a0 be 89 ab 61 3d 7d e7 5e be
       -0.07261175 -0.31357294 0.05509523 -0.21767993
000050 35 86 5e bd f6 12 7d 3d 39 33 95 bd 91 1f 18 3d
       -0.05432721 0.06178566 -0.072851606 0.03713948
000060 49 66 01 be 32 bd 76 be 80 17 90 3e b6 e2 8a 3d
       -0.12636675 -0.2409561 0.2814293 0.06781523
000070 f5 97 af 3e 2b 09 44 bd dc 9a ad 3d 80 8a ca 3d
       0.34295622 -0.047860306 0.08476803 0.09889698
000080 58 bd 6b be 3d 12 84 bc 9d 45 0c be 40 db 53 bd
       -0.23021448 -0.016121978 -0.1369843 -0.051722765
000090 0e 13 43 3e 37 c2 9f 3c 0c 86 64 bd 6f e6 f9 3d
       0.19050238 0.019501789 -0.0557919 0.12202155
0000a0 15 52 db 3c e3 fe 24 3e 34 c7 71 3e 34 3d f0 bc
       0.026772538 0.16112857 0.23611146 -0.029326059
0000b0 e6 37 bc bc 3f 72 0c 3e ed 76 26 be 2e b1 15 3e
       -0.022975873 0.13715456 -0.16256304 0.1461837
0000c0 e4 12 5d be bc 79 71 3e b6 cf 02 3e 2f b1 be bd
       -0.21589237 0.23581594 0.12774548 -0.09311139
0000d0 20 e8 4a 3d 70 ea 89 3d d5 7e 99 bd fd 39 7e 3e
       0.049537778 0.067341685 -0.074948944 0.24826808
0000e0 b4 d4 16 3e 53 7c 04 be 24 d0 a7 3e 46 58 52 3d
       0.14729577 -0.12938051 0.32775986 0.051353715
0000f0 8e 01 a2 3d 55 27 0c be 24 66 a9 3c 12 19 c7 3d
       0.07910453 -0.13686879 0.020678587 0.09721579
000100 13 c2 97 be 10 38 98 39 49 1d 33 3e b9 5a 24 3a
       -0.29640254 0.0002903347 0.1749164 0.0006269622
000110 1d b9 15 3d e4 2a e2 3d 49 99 45 be 90 75 2a be
       0.03655349 0.11043337 -0.19296755 -0.16646409
000120 de 4d 0b 3d 11 1d 4e 3e fa 3a 0e 3e 25 18 17 3d
       0.034009807 0.20128275 0.13889685 0.03688826
000130 fe 5a c7 3d 8d 59 bf bd ea 76 4e be f4 04 56 3d
       0.09734152 -0.09343252 -0.2016255 0.052250817
000140 3e 02 4e 3c 0a 19 9a 3d 6b 8b 6e bc 4e a4 ef 3d
       0.012573777 0.07524307 -0.014559607 0.117012605
000150 88 5a 25 3d 85 ad 81 bd ea 64 b6 bd 6a b0 3f 3e
       0.04036954 -0.06331924 -0.089059666 0.1871964
000160 d4 95 3a 3e 92 ef 15 3e 2a b9 36 3d cf 70 51 be
       0.18221217 0.1464217 0.04461018 -0.2045319
000170 7b 44 75 3b f3 80 4a be 46 be 4f be 7a ba 1e 3e
       0.003742485 -0.19775753 -0.20287427 0.15500823
000180 e3 f4 b0 3d 8e c4 3f 3e c2 c2 85 3d 62 81 0e be
       0.086404584 0.18727323 0.06531288 -0.13916543
000190 f7 d9 03 3d 6d 0f b6 bd bb de 94 be 1e a2 f2 bc
       0.03219029 -0.08889661 -0.2907618 -0.02961832
0001a0 7c 65 a1 3d ac 57 10 be 39 5b 8c bd 72 61 b8 3d
       0.07880685 -0.14095944 -0.06853337 0.09002961
0001b0 ce ac a8 bc ab d4 06 bd 69 69 16 be e7 29 45 be
       -0.020590212 -0.03291766 -0.14688648 -0.19254266
0001c0 28 a6 cc bd 70 9a 1e 3e 1e 8e 9b be 21 6e ce 3d
       -0.09992629 0.154886 -0.30381864 0.10079599
0001d0 6c c5 24 bd 60 3e 4d be 7a 3d 03 be 88 dd 6b be
       -0.04022734 -0.20043325 -0.1281642 -0.23033726
0001e0 69 1e 87 3d 24 55 cc 3b e6 9f 83 3d 1e d9 e0 bc
       0.06597597 0.0062357355 0.064269826 -0.02744728
0001f0 1b e8 9b bd 68 32 99 bd 7d 69 99 bd 11 6d 18 be
       -0.0761263 -0.07480317 -0.074908234 -0.14885356

fc2.weight f4 [128, 128]
000000 24 cc 96 3d 0d b2 e8 3c 97 5f 16 bd 13 59 ff 3d
       0.073631555 0.028405214 -0.036712255 0.124681614
000010 d3 7f 12 3e 4b 1e e2 bd 33 95 19 bd 24 dc 57 bd
       0.14306574 -0.11040934 -0.037495803 -0.052700177
000020 de 3f e7 3d 94 74 22 3d a4 7a aa bd 11 a0 2a be
       0.112914786 0.03966196 -0.08324173 -0.16662623
000030 8f 48 85 be c1 20 8a 3b a2 34 81 bb a2 b0 a5 bd
       -0.2603192 0.0042153304 -0.003943042 -0.08090331
000040 d9 bd 9f bc c4 ae 91 3c 86 53 8d bb be 6f 16 3e
       -0.019499706 0.01778353 -0.0043129353 0.14691064
000050 44 de 31 be 52 16 7e bd 48 5c 14 be e6 50 b4 3c
       -0.17369944 -0.062033005 -0.14488328 0.022011232
000060 65 85 07 3d 83 57 5f 3d f4 0e b0 bd 69 62 e4 bd
       0.0330862 0.054526817 -0.08596602 -0.11151583
000070 59 03 aa bd 6d 50 72 3d fb fe 1d be 11 b5 21 3d
       -0.0830142 0.05915873 -0.15429299 0.03947932
000080 2d 76 c4 bd ec a3 13 3e 0f 9a 06 3e d1 99 cc bd
       -0.09592853 0.14418 0.13144706 -0.09990276
000090 c1 47 58 bc 1d 63 a7 be b3 b6 92 bd 05 f6 81 bd
       -0.013200701 -0.32692805 -0.07163753 -0.063457526
0000a0 94 30 5a 3d 05 64 79 3c 03 50 50 3d 0a 69 6d bd
       0.053268984 0.0152216 0.050857555 -0.0579615
0000b0 f2 f2 30 be ee 92 85 be 5e b7 80 bc e2 84 5f 3e
       -0.17280176 -0.2608866 -0.015712436 0.21828035
0000c0 23 70 2f bd ae f1 12 be 3f b0 fe bd f4 0d e9 3b
       -0.04283155 -0.14350006 -0.1243596 0.007112259
0000d0 00 76 68 bd a1 29 13 be 98 cf 59 bd 74 ec 2b 3e
       -0.05675316 -0.14371349 -0.053176492 0.16789418
0000e0 d3 9d 41 bd cc f7 21 bd 81 7e 06 bd 5d 11 14 bd
       -0.047269654 -0.03954296 -0.032835487 -0.03614937
0000f0 73 ac 2c be 9f 25 83 bd 61 1d 9e 3d 6d aa 51 be
       -0.16862659 -0.0640366 0.07720447 -0.20475169
000100 91 b2 c6 3d fb a7 03 3e 78 9e cc bd 06 23 92 bd
       0.097020276 0.12857048 -0.09991163 -0.071355864
000110 36 08 30 3c 62 5e a9 bc c7 c9 ac be 08 5d 9c bb
       0.010744145 -0.020674888 -0.33747694 -0.0047718324
000120 24 19 8a bd 7c 4d b3 bd b7 f2 90 be 3e 79 4b bc
       -0.067430764 -0.08755013 -0.28310177 -0.012419043
000130 9e f5 aa bd 1f aa b1 3c d1 01 17 bd 42 07 03 3d
       -0.08347629 0.021687565 -0.036866967 0.031989343
000140 1c ae b0 3c 33 86 ad 3d 0e 4f 01 3e 1e 17 c6 bd
       0.021567397 0.08472862 0.12627813 -0.09672378
000150 e2 08 28 be 3c d5 59 be e4 a9 f9 bd 6b 6f d1 3c
       -0.16409639 -0.21272749 -0.12190607 0.025565824
000160 36 77 ec bd 94 92 bd bc f7 2b 10 be e0 83 07 be
       -0.11546175 -0.023141183 -0.14079271 -0.132339
000170 3d c9 6f bd 53 81 9e bc 98 5f 10 be 7c af 19 bc
       -0.058541525 -0.019348776 -0.14098966 -0.009380218
000180 94 27 59 bc 13 21 05 be c3 ec 1c be a9 b3 74 bc
       -0.013254065 -0.13000898 -0.15324692 -0.014935412
000190 b9 f3 2d be 79 2d 25 3e 3d b1 88 bc c7 9e 84 bd
       -0.16987504 0.16130628 -0.016686076 -0.06475597
0001a0 d9 05 0b bb 7a 6d 8b bd 98 b6 18 3d e9 5a 66 be
       -0.0021213202 -0.0680799 0.03728351 -0.22495617
0001b0 5a 4f 8c 3d 7b 91 b8 3d 94 46 e9 bd 1e fd e6 3c
       0.068510726 0.09012123 -0.11390415 0.028196868
0001c0 90 1c b9 3c 4c 75 ef bd 01 c8 92 3c f0 de 0b be
       0.022596627 -0.116922945 0.017917635 -0.13659263
0001d0 7b 4d 55 bd 41 0d 9d 3d 81 b6 72 3d db 85 3f be
       -0.052075844 0.076685436 0.05925608 -0.18703406
0001e0 3e b3 ae bc 24 90 c8 3c c6 36 8a bd 18 b5 f5 ba
       -0.021325704 0.024482794 -0.067487285 -0.0018745987
0001f0 d3 6e d3 bd fa 44 e4 3d 36 15 47 bd 27 0a 5e bd
       -0.103238724 0.11145969 -0.048604213 -0.0542089
000200 e0 30 98 bd ec 69 56 3e 0c dd 08 3d 41 dd af bd
       -0.07431197 0.20938843 0.03341393 -0.08587123
000210 53 3b 13 3d cc 5a ba bd 9d b0 d6 bc e7 35 d6 be
       0.035945248 -0.090993494 -0.026207263 -0.41838
000220 8d 7b f2 3c 30 19 73 be 2f c5 64 3d ab c0 51 bd
       0.02959993 -0.23740077 0.05585211 -0.051209133
000230 db 19 bb 3c 43 96 f9 3d 88 65 f5 3c 17 41 2c 3e
       0.022839477 0.12186863 0.02995564 0.16821705
000240 d0 73 92 be 7e 31 b5 3d 50 74 28 3d b9 b2 08 bd
       -0.28603983 0.088473305 0.04112655 -0.03337357
000250 38 21 29 bc e9 a3 b5 3c 3c 41 8f 3c 01 86 99 3e
       -0.010322861 0.022172885 0.01748716 0.2998505
000260 6d 16 f9 bd e4 81 ab 3d aa 03 fb 3c d2 20 1a 3e
       -0.121624805 0.08374384 0.030641396 0.15051582
000270 23 07 4e 3c 91 98 95 be 29 56 c6 3c cd ef 66 3d
       0.012574944 -0.2921796 0.024211006 0.056381036
000280 1f 50 d3 3b b3 29 29 bd c5 57 5a bb e3 42 b1 3d
       0.00644876 -0.041299533 -0.0033316475 0.08655336
000290 fd 09 1f be 52 23 00 be 2b 26 c3 3d c9 83 48 be
       -0.15531154 -0.12513474 0.09528764 -0.19581522
0002a0 a6 b5 6d 3d fd a7 2b bd 17 dc 7c bd 67 c3 5c 3d
       0.05803456 -0.041908253 -0.06173333 0.053897288
0002b0 b2 39 47 bd 40 b9 bb bd d9 36 63 bc 21 17 c9 bd
       -0.048639007 -0.09166193 -0.013868057 -0.098188646
0002c0 32 89 4e be 50 a3 b8 3d 39 7e ad bc 68 55 42 be
       -0.20169523 0.090155244 -0.021178352 -0.18977892
0002d0 ea 1e 43 bc 5c 2a 2c bd 92 bf 50 be 49 ac 23 3e
       -0.011909226 -0.042032585 -0.20385578 0.1598369
0002e0 a8 3a cd 3c cb 74 84 3d f0 2f 33 3e 55 b0 87 bd
       0.025052384 0.06467589 0.17498755 -0.066254295
0002f0 ab 6e a3 3d 28 d1 a1 3c 2e d5 4f bc 82 42 e9 3c
       0.079800926 0.019753054 -0.012685103 0.028474096
000300 98 c6 35 bd 9c 9e 8a bd 2c 8f b5 bb 81 94 cf 3c
       -0.044378847 -0.067685336 -0.005540749 0.025339367
000310 76 a2 92 bc ad f6 31 bd 48 5e 1e bb e4 5c 3a be
       -0.017899733 -0.04344814 -0.0024165083 -0.18199497
000320 e7 92 64 be 61 d8 ce 3d a2 8e cd bd 22 5e 36 3d
       -0.22321664 0.10099865 -0.10036971 0.044523366
000330 30 8b c1 3d 81 b7 d6 3d 80 e6 52 3c 08 30 00 3e
       0.09450376 0.10484219 0.012872338 0.12518322
000340 4d b6 0c be 61 2c d1 bd fe d3 3e 3d bc 26 3d 3c
       -0.13741417 -0.10213543 0.04658889 0.0115448795
000350 ca a7 2e 3d 4d 7b a8 3d 3c 66 18 be 88 71 39 bd
       0.042640485 0.08226643 -0.1488275 -0.045274287
000360 44 e4 53 3e 6f d1 81 be 4a c6 a9 3d 17 66 d3 bd
       0.20692545 -0.25355098 0.08289774 -0.103222065
000370 9b 78 a1 bc 86 7a 86 bd a2 22 a1 3d 85 da 74 be
       -0.01971083 -0.06566338 0.07867934 -0.23911484
000380 9b e7 55 be 76 51 96 3d 5d 7d 8a 3d 9d 92 c3 be
       -0.20889132 0.07339756 0.067621924 -0.38197795
000390 e6 b1 0a 3d d8 3c d3 3d 41 9d 6e bb ab c4 c8 bd
       0.033861063 0.103143394 -0.0036409649 -0.098031364
0003a0 f4 18 a4 3d fd 87 08 3e 51 f6 58 bd b4 0c 43 3e
       0.08012572 0.13333125 -0.05296928 0.19047815
0003b0 b6 da 86 be 4b 97 36 3d de fe 8f be 8e 62 35 3d
       -0.26338738 0.044577878 -0.28124136 0.044283442
0003c0 54 11 3a 3e 0b 8d 71 3c 43 94 2e 3e 63 5f 35 3e
       0.18170673 0.0147431 0.17048745 0.17712168
0003d0 d8 c8 e6 3d 8b 8f 22 3d ba 12 8e 3c 09 fa 8e 3c
       0.11268777 0.039687674 0.017342914 0.01745321
0003e0 28 b8 df 3c 84 0c 5c 3d ee 8c 8c 3c 4b d6 e1 bd
       0.027309492 0.053722873 0.017157044 -0.11027201
0003f0 54 29 9d 3c 35 7d cd 3c 43 4a 63 3e 6c c1 1a 3d
       0.019184746 0.025084117 0.22196297 0.037782118

fc2.bias f4 [128]
000000 b7 17 6f bc af e3 49 be c1 49 95 3c 7d e2 a8 bd
       -0.014593056 -0.1971576 0.018223645 -0.08246324
000010 1c ef 4c bc d4 f0 81 bd a8 ac 95 ba 32 df c9 3a
       -0.01250818 -0.063447624 -0.0011419253 0.00154016
000020 78 49 0e be 02 6e c0 3b 03 20 f4 3c 7c 76 c0 bd
       -0.13895214 0.005872489 0.02980042 -0.09397599
000030 11 93 14 3e a0 b7 31 be 48 6a 16 bd ff dc a7 bd
       0.14509226 -0.17355204 -0.03672245 -0.081964485
000040 fc 8f 12 bd 65 42 13 bd 87 0b 6a 3d e6 5a b4 bd
       -0.035781845 -0.03595199 0.0571399 -0.088064
000050 b5 62 5f bd 9c ce 82 bd 4e 72 d3 bd 84 6e ed bc
       -0.054537494 -0.06387064 -0.10324536 -0.028983362
000060 ca 01 20 3d e7 33 91 3c 80 20 c6 bd 1e a2 b7 bd
       0.039064206 0.017724944 -0.09674168 -0.08966468
000070 00 61 3a 3a 21 76 18 be 87 74 99 3a b3 ab b5 3d
       0.0007109791 -0.14888813 0.0011707701 0.0887064
000080 11 96 01 be ca a7 0f bb 8c 12 2e 3c e4 7b af bd
       -0.12654902 -0.0021920078 0.010624539 -0.08568552
000090 d9 7b 25 be a3 c5 76 bc 10 77 e4 3c 47 89 86 bd
       -0.16160525 -0.015061769 0.027888805 -0.06569152
0000a0 d3 d8 64 bd 90 d5 b6 bd a0 1f c9 bd 24 bf 7e bd
       -0.055870842 -0.089274526 -0.09820485 -0.062194005
0000b0 59 63 83 3d ca 19 7d bc e6 73 4d 3d fa 3d 1b 3d
       0.064154334 -0.015448043 0.050159357 0.037900902
0000c0 cd 98 c5 bc 07 e0 36 bd af 50 c2 bb 7b e6 fd 3a
       -0.024120713 -0.044647243 -0.0059300284 0.0019371057
0000d0 75 79 fa 3c c7 57 c8 bd a9 c3 54 3c af 00 11 bc
       0.030575493 -0.09782367 0.012986102 -0.008850261
0000e0 aa bf 99 bd aa 89 3f 3c 57 db 8f bd e2 3a fa bd
       -0.0750726 0.0116905365 -0.07024258 -0.12218262
0000f0 7f ef 04 3d 62 69 16 3c 14 7a b4 bc 3f 72 88 bd
       0.032454964 0.009180399 -0.022030868 -0.06662416
000100 a4 6e ab bd 1a 66 c4 3c ff b2 30 be e5 93 1a bd
       -0.083707124 0.023974467 -0.17255782 -0.0377387
000110 f1 18 56 bc 3a f4 2d bd 82 2d 6f bd 50 ed 6f 3a
       -0.01306747 -0.04246924 -0.05839301 0.0009152489
000120 f2 78 a2 bd 8b de fb bd e9 32 0a be 87 a3 9c bc
       -0.07933225 -0.12298306 -0.13495983 -0.019120945
000130 ec 78 c5 3d e5 31 61 3d 2f a4 55 bc 60 ba c2 bd
       0.09642205 0.054979224 -0.013039633 -0.095082045
000140 b3 59 9e 3d e0 fc 34 bd 37 73 73 3d 75 28 80 bc
       0.077319525 -0.044186473 0.05943605 -0.015644291
000150 81 70 ed 3c ee df 7a bd 38 18 10 be 83 5c 46 3c
       0.02898431 -0.061248712 -0.14071739 0.012107017
000160 cb c0 21 3d e8 03 3b 3d 49 3d 4a 3c 1b a1 f2 3a
       0.039490502 0.045658022 0.012343713 0.0018511148
000170 39 8e 34 bd b0 6c 6d bd 2a 84 a9 3c 5b e4 92 bd
       -0.044080947 -0.05796498 0.020692904 -0.071724616
000180 0c ba fc bd 97 d3 00 be 1a 99 25 3d 05 c9 bf 3d
       -0.12340173 -0.12580715 0.040429212 0.09364513
000190 4a 50 12 bd 38 98 b6 bd 61 10 e6 bd 8e c9 06 bd
       -0.0357211 -0.08915752 -0.11233593 -0.03290706
0001a0 9e 8a bb bd 32 00 19 3d b7 27 ce 3d 6a 06 5b bd
       -0.091572985 0.037353702 0.10066169 -0.053472914
0001b0 45 38 30 3b 27 5f 6e 3d 2a a6 8c bd 86 02 fc 3b
       0.0026889008 0.058196213 -0.06867631 0.0076907305
0001c0 35 cc 12 be a7 8c e9 3d 7e 59 20 bd 68 dd 09 3d
       -0.14335711 0.114037804 -0.039147846 0.033658415
0001d0 17 c1 07 3d dc 1f 11 be c6 e2 8f 3b 85 71 ab 3d
       0.03314313 -0.1417231 0.004391047 0.083712615
0001e0 01 a6 36 be 47 b2 3d bb 2c b0 ba 3d 10 a3 af bd
       -0.17836763 -0.0028945373 0.09115633 -0.085760236
0001f0 11 dd 05 3d be 94 00 be f1 18 5f 3c 33 3f 85 3c
       0.03268153 -0.1255674 0.013616786 0.016265487

fc3.weight f4 [128, 128]
000000 fc f4 74 3d 22 83 d4 3d 88 30 9d bd 09 db 08 bd
       0.059803948 0.10376574 -0.07675272 -0.033412013
000010 9f 74 61 3c d3 e6 2b 3b c1 aa 99 3d 10 34 95 3d
       0.013760715 0.0026230111 0.07503272 0.07285321
000020 3c 5f be bd 85 d8 08 3d b5 ac 6b bd 88 93 37 3c
       -0.09295508 0.033409614 -0.057537753 0.011204608
000030 d7 a5 ee 3b 8f 47 94 bc 13 41 d9 bd 0a b9 cc bd
       0.0072829532 -0.018100528 -0.10608115 -0.09996231
000040 c1 03 ca 3c d7 79 ec bd 25 ee 60 be cf b9 44 bd
       0.024659993 -0.115466766 -0.21965845 -0.048028763
000050 8a 24 ed 3d 87 4a db 3b dd 64 c8 3c 55 2d cf 3c
       0.11579235 0.006692234 0.024462158 0.02529017
000060 e5 d9 9a bd 0f dd 95 3c 0f dc 8f 3d 3b 1e b2 bd
       -0.07561091 0.018293886 0.07024395 -0.08697172
000070 17 2f 9d 3d 5d 07 8f bd 41 cf 94 bd 6a 5f a7 3d
       0.07674997 -0.06983826 -0.07266093 0.08172496
000080 bd 58 1d bb 9b 8a 28 3e 62 7c 75 3d b9 55 cb 3d
       -0.002400919 0.16459124 0.059933074 0.0992846
000090 4e 24 f6 bd d3 ae 68 3d 41 d5 12 3d c4 cd 46 3d
       -0.12018643 0.05680735 0.035847906 0.048536077
0000a0 5a 06 b6 bc 0b 14 db 3d ed 45 c6 bd 6d 20 91 bd
       -0.022219826 0.10697182 -0.09681306 -0.07086263
0000b0 16 08 0b 3d f8 dc fd bd f8 ce 42 bd c9 aa 11 3e
       0.03394326 -0.12395662 -0.047560662 0.14225306
0000c0 63 e9 f4 3d 5a 22 c8 3d ce 64 8a bd d7 f4 11 3e
       0.119585775 0.09772177 -0.06757508 0.14253555
0000d0 a7 81 da 3d 1f 8d 11 3d 0f ff b0 bc ac f4 c7 3d
       0.106692605 0.035534974 -0.021605996 0.09763464
0000e0 bd 90 0b be 0b b0 15 3d 1c 8c 71 bc 11 70 f5 3c
       -0.13629432 0.03654484 -0.014742877 0.029960664
0000f0 5f 37 4d bc d1 ab ba bd 5b 57 11 be 57 94 24 3d
       -0.0125254085 -0.09114803 -0.1419348 0.04018053
000100 f3 3d 59 be 64 31 24 be 8e 77 0b be d1 fb e0 3d
       -0.21215038 -0.16034466 -0.13619825 0.1098553
000110 05 69 0d 3d 58 72 a1 bc ab f2 93 3c e9 a2 18 be
       0.034523983 -0.019707844 0.018060049 -0.14905895
000120 a1 c2 3e be 3a a6 eb bd f7 53 07 bc 81 14 ad 3b
       -0.18628933 -0.115063146 -0.008259765 0.0052819853
000130 ba e8 2f be 46 d9 82 3d dc 8b c7 bd ba ed 8f 3d
       -0.17178622 0.06389098 -0.09743473 0.070277646
000140 94 42 90 3b 21 11 1d 3d b5 b0 d5 3b 31 ea d1 3d
       0.004402468 0.038346414 0.0065213093 0.102497466
000150 0c 08 c7 3d 6b 9e d7 bd 7f a6 9c bd 3b bb 8a be
       0.09718332 -0.10528263 -0.07648944 -0.2709597
000160 64 85 82 bc f9 b3 29 be 8d 23 ef bd 31 44 5f be
       -0.015932746 -0.1657256 -0.11676703 -0.21803357
000170 75 0a 17 be 23 7c 99 bd 32 a3 a9 bd 7c 86 ee 3d
       -0.14750083 -0.0749438 -0.0828308 0.116467446
000180 18 00 33 bd cd 63 c9 bd c6 98 cc 3c 64 2b 52 bc
       -0.04370126 -0.098334886 0.024975192 -0.012827728
000190 e4 20 2a be 49 84 b5 3d 9f 08 c0 3d 16 2e c2 bd
       -0.1661411 0.08863122 0.09376644 -0.094814464
0001a0 e9 ca 91 3c 97 c5 f0 3c bd 96 34 3e a3 df 8a 3b
       0.01779695 0.029391093 0.17635627 0.0042380854
0001b0 08 d1 cc bd 73 16 8e 3c f1 44 03 3e a8 eb a6 3d
       -0.10000807 0.017344689 0.12819268 0.081504166
0001c0 56 16 50 bc c3 5b 94 3d fb 22 3d bc 47 d0 ec be
       -0.012700638 0.07244065 -0.0115439845 -0.46252653
0001d0 54 11 30 be 3c c0 0b be 47 e2 73 be 72 88 82 bc
       -0.1719411 -0.1364755 -0.23816787 -0.015934203
0001e0 fc 58 95 be db a4 db bd 8f 5d 02 3e d0 50 36 be
       -0.29169452 -0.10724803 0.12731002 -0.17804265
0001f0 9f 3f 18 bc 74 99 66 be ea 66 22 3d 27 35 ac bd
       -0.009292512 -0.22519475 0.039648928 -0.084085755
000200 23 b6 52 3d 83 db 53 be 4e 1c b1 3d 89 ad 56 bb
       0.05144323 -0.20689206 0.08647977 -0.0032757244
000210 c4 57 61 3c d3 03 51 be 05 b4 da 3c 7c b0 03 3d
       0.013753835 -0.20411615 0.026697168 0.03215073
000220 70 ef 0c b9 2b f9 dd bc 65 d0 36 3d 6c 54 11 be
       -0.00013440638 -0.027096352 0.044632334 -0.1419236
000230 3e ae 41 bd 59 44 40 be 3a 9c 6d 3c 76 cb 14 3e
       -0.04728531 -0.18776073 0.014502579 0.14530739
000240 f5 de 60 3d 24 ab 27 3a b5 58 ba 3c eb 52 02 be
       0.05490013 0.00063960464 0.022747377 -0.12726943
000250 99 c6 d2 3c 53 4b bf 3d 5a ea 5e bd a3 0a 7b bd
       0.025729464 0.09340539 -0.054422714 -0.06128944
000260 6f 92 53 3d b4 68 e9 bd f9 2c b4 3d da e9 d0 bd
       0.05165332 -0.11396924 0.0879764 -0.10200854
000270 d9 35 10 be 1a 43 40 3d d1 dd 1a be 9d 14 9f 3c
       -0.14083041 0.046938993 -0.15123679 0.019419009
000280 d1 a8 b9 bd 5b 64 fc 3c 82 19 31 be ec 3f 57 bd
       -0.09065402 0.030809572 -0.17294887 -0.052551195
000290 f5 50 2f bd 27 0f 93 bd 3b d1 31 bd 89 7d dc 3b
       -0.042801816 -0.071806245 -0.04341243 0.006728832
0002a0 a2 c0 6a 3d d1 e7 8c 3c c6 ba e5 3c ef 8b 8f 3c
       0.057312615 0.017200382 0.028043162 0.01752278
0002b0 33 47 59 3d 55 b9 92 bd 98 63 01 3d a9 6f 19 be
       0.053046416 -0.071642555 0.03158912 -0.14984001
0002c0 8c 98 3b be 7a e8 bb 3c a4 26 c6 3d d5 a3 9d bd
       -0.18319911 0.022938002 0.09675339 -0.07697264
0002d0 58 2c 07 be 3a b6 b8 bc 07 29 a6 3d 9e 28 df bd
       -0.1320051 -0.02254783 0.08113294 -0.10896419
0002e0 ba 81 b3 3d 1d 35 d7 bc 48 60 8f bd ca 83 dd 3d
       0.08764978 -0.026270444 -0.07000786 0.108161524
0002f0 33 52 30 bd f9 bd 06 3c 57 94 f5 3c cf de 3a be
       -0.04304714 0.008224004 0.02997796 -0.18249057
000300 37 78 04 3e 84 36 e5 3d 02 69 8b 3d 0f 23 e5 bd
       0.12936483 0.11192039 0.06807138 -0.111883275
000310 e9 bd e9 3c 7d 1e 4d bc c3 61 bf bd 9a 93 62 bc
       0.028532939 -0.012519476 -0.093448184 -0.013829136
000320 64 36 9b 3d 55 24 f8 bc 6d 5b d4 3d 3f dd 7a bd
       0.075787336 -0.030290762 0.103690006 -0.061246153
000330 08 02 79 3d 44 d0 91 bd 61 78 0d 3e ed 91 9d be
       0.060792953 -0.07119802 0.13815452 -0.30775395
000340 e2 0b b1 3c dc 82 4b bc 38 57 40 3d 3a bb 2b bd
       0.021612111 -0.012421336 0.04695818 -0.0419266
000350 83 5c aa bc be 9f f3 bb 7c c4 0d bd 93 4e 67 3d
       -0.020796066 -0.0074348142 -0.03461121 0.05647142
000360 85 a2 b7 3d 2f 74 dc 3d b8 28 bf 3d 5b 53 88 3d
       0.08966545 0.10764348 0.09333938 0.06656524
000370 6e 80 7b 3d 26 95 8a 3e 70 ec b5 3d 97 d9 d8 bd
       0.061401777 0.27066916 0.088829875 -0.10588377
000380 02 a4 97 bd e3 e4 47 3d 22 b8 ae bd 2b b9 36 3d
       -0.07404329 0.048802268 -0.08531214 0.044610184
000390 27 17 fb 3d bc e0 46 be e5 e2 68 bd ab 02 e0 3d
       0.12260275 -0.19421667 -0.05685701 0.10938009
0003a0 e6 e5 c4 3d 24 d7 32 3d a1 af 61 be 44 20 99 bc
       0.09614162 0.043662205 -0.22039653 -0.018692143
0003b0 33 a0 19 3e 10 79 8f 3c 0a 01 20 bd e8 ba 12 bd
       0.15002517 0.017513782 -0.03906349 -0.03582278
0003c0 49 f0 fa 3d 30 07 02 3c 3e 8c 00 3d d8 60 fc 3d
       0.12252862 0.007936284 0.031383745 0.12323159
0003d0 fe 3c 3e 3e 51 28 a2 3d f0 ed 43 bd d5 29 81 bc
       0.18577954 0.07917846 -0.047834337 -0.015767017
0003e0 a7 92 54 3e 0d 69 13 3d 6c 26 f9 bd e1 08 11 3e
       0.20759068 0.035988856 -0.121655315 0.14163543
0003f0 7b c2 51 bd 19 f3 47 3e 3a 2c 15 bc d8 c1 99 3b
       -0.05121086 0.19526328 -0.009104783 0.0046922974

fc3.bias f4 [128]
000000 7d 1c 39 3c 55 64 01 3c 18 45 14 3d 0e bc 02 3c
       0.011298296 0.007897456 0.036198705 0.007979406
000010 f2 54 69 3c 42 1d 11 bd 81 94 16 3c e1 16 cf bb
       0.014241444 -0.035428293 0.0091906795 -0.006319866
000020 06 a7 84 bd 20 e5 39 ba 82 9b fe bd 36 1f e3 3c
       -0.0647717 -0.0007091332 -0.124320045 0.027724843
000030 d5 a2 48 bd 65 17 bb bb 5c 4d 0a bc 6f 51 b6 3c
       -0.048983414 -0.005709576 -0.0084412955 0.022255627
000040 95 0c bc bd 12 69 88 bc ad 01 83 3d 99 00 56 bc
       -0.09182087 -0.016651664 0.06396804 -0.013061666
000050 30 6b c0 bd 9c 3f c6 bd 7c 57 ba bd d9 9e 9c 3c
       -0.093954444 -0.09680101 -0.090987176 0.019118713
000060 2c b9 5d bc 62 9f d1 3d 6b 51 41 bd c5 c6 a6 bb
       -0.013532918 0.10235478 -0.047196787 -0.005089613
000070 fe d8 42 3d 48 37 34 bd c6 4c ca bd 8b 3e ac 3d
       0.04757022 -0.043998033 -0.098779246 0.084103666
000080 aa 0c c7 3c ee f3 87 3b e7 81 27 bd d3 f7 58 bd
       0.02429803 0.0041489517 -0.04089537 -0.05297072
000090 dd 7c ea bc 0d 34 77 bd 5c 10 5f bc 47 0f 56 bd
       -0.028623993 -0.060352374 -0.01361474 -0.052260663
0000a0 f7 df 3f bc 60 dd 89 bd 25 ee 57 3d 1a a3 35 be
       -0.011711112 -0.06731677 0.052717347 -0.17738
0000b0 8d 01 0c 3d 65 64 c5 3c fe c0 87 3d 88 21 65 bb
       0.034181166 0.024095723 0.06628607 -0.0034962613
0000c0 9c 1a 96 3d e9 64 a3 bd 40 d0 20 3d 1f 07 e5 bd
       0.07329294 -0.079782315 0.039261103 -0.11182999
0000d0 08 ef e2 bd 4b 1b a2 bb 0a cb a1 3c 96 6b f2 bb
       -0.11080748 -0.004947101 0.019750137 -0.007398079
0000e0 72 b7 fc bc 1d a7 07 bd 10 9a a7 3d 35 01 5a 3d
       -0.030849192 -0.033118356 0.08183682 0.053223807
0000f0 9f 9c e7 bc ac a3 08 be 8e 75 b6 bd 44 40 07 be
       -0.028272925 -0.13343686 -0.089091405 -0.13208109
000100 64 e3 cc 3d 50 f2 a6 bd 41 85 93 bd 5c f5 61 3d
       0.10004309 -0.08151686 -0.072031505 0.055165634
000110 16 b0 e0 3c 11 6e 00 bd b2 c4 10 3a 89 c1 aa bd
       0.027427714 -0.031354968 0.0005522474 -0.08337695
000120 a7 a8 8f bd d8 21 9f bd 6d 04 e8 bd 4e fb 88 3d
       -0.0701459 -0.07770127 -0.11328969 0.066885576
000130 04 8a da 3c 6d 06 91 bd d9 5d a5 bd 2a 72 5d bd
       0.02667714 -0.07081304 -0.08074541 -0.054063953
000140 56 e8 04 be 07 00 45 bd 55 5d c7 bd fd 6e a4 3d
       -0.12979254 -0.04809573 -0.097345985 0.08028982
000150 75 66 05 be 1f 4d 25 3d dd 95 12 bd b2 6c d5 bc
       -0.13027366 0.04035675 -0.035787452 -0.026052807
000160 df c9 06 be 38 e9 5b 3d ff 05 26 bd 14 ad 69 bd
       -0.13162945 0.05368921 -0.040533062 -0.057049826
000170 a4 e0 f1 3c f1 53 94 bd 2f 68 8e bc ae f2 9f bd
       0.029526062 -0.07242573 -0.017383663 -0.07809959
000180 d0 7d 88 3d 84 ed 87 bd ae 66 bd bc cf c6 cb bd
       0.06664622 -0.066370994 -0.02312025 -0.09950029
000190 63 ed 4f 3c 25 8f 14 3c b4 9a ff 3c c5 ea dd bd
       0.012690875 0.009067331 0.031201698 -0.10835794
0001a0 c2 84 73 bd 38 d8 83 3d bc 36 17 be 28 44 86 bd
       -0.05945278 0.06437725 -0.14766973 -0.065559685
0001b0 d3 c8 7d bd 50 39 f6 bc b3 0f e9 bd 6a 76 bf bd
       -0.0619591 -0.030056626 -0.113799475 -0.093487576
0001c0 16 e7 b8 bd 35 60 31 3c 24 d8 eb bd ec 88 c9 bb
       -0.09028451 0.01082616 -0.11515835 -0.0061503556
0001d0 96 b7 08 3d bd bf 6c bd 21 c6 60 3d 7d 9f fa bc
       0.033378206 -0.057800043 0.05487645 -0.030593628
0001e0 80 74 d9 bc 9f dd 84 3d e8 b5 25 3d 56 e8 61 3c
       -0.02654481 0.06487583 0.040456682 0.013788303
0001f0 b2 42 44 3d d4 ad a6 bc 33 7d 20 be c8 15 aa bd
       0.047915168 -0.02034656 -0.1567276 -0.08304936

fc4.weight f4 [2, 128]
000000 fb cb 87 bb ba 72 21 bd 5d 73 4b be 9e 15 d4 bc
       -0.0041441894 -0.039416052 -0.19868226 -0.025889214
000010 2a 3c 22 3e 39 b9 65 be f6 6f 54 bc 5a 23 54 3e
       0.15843263 -0.22433938 -0.012966147 0.2071661
000020 21 93 19 3e 13 b3 80 3e 98 69 0b 3c f5 ba 26 be
       0.14997531 0.25136623 0.008509062 -0.16282256
000030 ed b0 65 3b ca 89 d3 3d 3d f2 9d bd 7e 71 e3 3d
       0.0035048083 0.103290156 -0.07712219 0.11105631
000040 66 36 36 3d f2 e6 4e 3e 8e c2 66 be 90 1c a2 3d
       0.044485472 0.20205286 -0.22535154 0.07915604
000050 d4 ad 40 3e 8f 6f 50 3d 76 da 27 3d 3e 80 d9 bc
       0.1881631 0.05088764 0.040979825 -0.026550408
000060 1a 18 9b 3e 4a 09 13 bd ef e5 6c 3d 05 d3 19 3e
       0.30291826 -0.03589753 0.05783647 0.15021904
000070 c9 3a ee 3d d0 65 00 3e 0e 5d 28 3e 92 d5 0d 3e
       0.11632306 0.12538838 0.16441748 0.13851002
000080 ed c2 24 be 47 4f 11 3e 17 10 92 b9 28 ec 7b 3e
       -0.16089983 0.14190398 -0.00027859278 0.24601805
000090 6e c7 5a 3e 15 ca 3f 3e 10 00 05 3e b1 c7 79 bd
       0.21365139 0.18729432 0.12988305 -0.060981456
0000a0 55 f2 d9 3d 01 c0 10 3e b7 09 58 3d c3 eb 9e be
       0.10641924 0.14135744 0.05274364 -0.31039247
0000b0 b2 af 96 3d 48 17 5e be 1f 9b 3c 3e 4e bb 86 bb
       0.0735773 -0.21688569 0.18418549 -0.004111684
0000c0 8a 01 cf be cd 1e 02 3e 49 3c e7 3c 8f 7e f8 3d
       -0.40430862 0.12707062 0.028226988 0.12133514
0000d0 95 c3 1d bc 30 00 0e b8 82 9d 38 bd 1d 4b 29 3e
       -0.00962915 -3.3855613e-05 -0.045072086 0.1653256
0000e0 c3 f8 4e 3c c3 b5 92 bd 37 6f c1 be 6c d6 52 3e
       0.012632552 -0.071635745 -0.37780163 0.20589608
0000f0 84 01 e3 3d 45 89 fd 3d a8 16 03 bd d1 7f 93 3e
       0.110842735 0.12379698 -0.03200403 0.28808454
000100 5b db 6c 3d 68 fb 91 3e 84 a8 9b 3e c6 89 44 3e
       0.05782638 0.2851212 0.30402005 0.19193181
000110 f4 58 1b 3e 7f 57 09 3e 40 8b 1a be 18 57 27 3a
       0.15170652 0.13412283 -0.15092182 0.00063835224
000120 e0 94 2a 3e d5 38 ec 3d eb 1d fc 3d d9 33 53 3e
       0.16658354 0.11534277 0.12310394 0.20625247
000130 26 83 ca bd ca 6d 44 3d 89 b8 eb 3d 11 3b 3d 3e
       -0.09888296 0.047956266 0.11509807 0.18479563
000140 4e ae 8a bc af 8c 05 3e 86 7f 85 3c b1 df 38 3e
       -0.016928818 0.13041948 0.01629616 0.18054081
000150 71 ab b0 3c 53 e6 68 bd 6a 21 1f 3e 77 a5 3c bd
       0.021566125 -0.05686028 0.1554009 -0.046056237
000160 df 67 09 bc 13 ae 16 3e 54 41 e4 3d d6 1d a6 3d
       -0.008386581 0.14714842 0.11145273 0.081111595
000170 72 00 98 3d c1 cb 52 3e fa 5b 58 3d a7 96 79 bc
       0.0742196 0.20585538 0.05282209 -0.015233672
000180 4c b0 7e 3e 3e c6 2c 3e 32 8b 83 bd cf 4f 67 3e
       0.2487194 0.16872498 -0.06423034 0.22589038
000190 1f d5 ce bd 64 72 5c 3d b3 bf 5c 3d fc 57 6e 3e
       -0.100992434 0.05382003 0.053893756 0.23275751
0001a0 8a 44 d5 3d 80 d0 7b bc 18 c7 8f 3d ad 4b fa bc
       0.104134634 -0.0153695345 0.07020396 -0.030553663
0001b0 2b 89 39 3d c8 a5 74 bc c1 1a d5 3d 1d 91 89 3e
       0.04529683 -0.014932103 0.104054935 0.26868525
0001c0 90 d6 af bc 27 f6 45 bd 73 55 8e 3e e5 f2 39 bc
       -0.021464616 -0.048330452 0.27799568 -0.0113494145
0001d0 0b c6 80 3d 14 94 11 3e dc db f5 3d c0 04 9c 3d
       0.06287774 0.14216644 0.120048255 0.076180935
0001e0 88 f1 16 3c 5c 02 e1 3d 44 3a 0d be 64 e7 e0 3d
       0.009212859 0.10986778 -0.13791758 0.10981634
0001f0 b0 31 23 be a3 74 58 3d 98 7b f2 bb 07 03 a0 bc
       -0.15936923 0.05284561 -0.0073999874 -0.019532694
000200 8e 19 0b 3f 29 4d 7f be 7d 22 92 be c0 f6 9a be
       0.5433587 -0.24931778 -0.28541937 -0.3026638
000210 1b b3 1a 3e b9 87 98 3d f2 e6 c0 3e 55 03 e5 bd
       0.15107386 0.07447762 0.37676197 -0.11182276
000220 a7 e4 f1 3a 82 ea 7c bd fa 04 06 be 43 e5 6f 3d
       0.0018454985 -0.06174708 -0.13087836 0.05856825
000230 cd 31 e5 be 6c f0 a3 3e 7d c6 dd 3e 23 ee 13 3e
       -0.44764557 0.32019365 0.43315497 0.1444631
000240 97 b0 05 be 41 d7 9d bc bd 91 9c 3d 56 5c 0a bd
       -0.13055645 -0.01926768 0.07644985 -0.033779465
000250 e6 5c 01 bb 5d f3 c0 3d 31 ab ba bd ae 78 92 be
       -0.001973921 0.09421418 -0.091146834 -0.28607696
000260 81 4a 62 be 26 43 ab be 91 7f 86 3e 41 0d d8 3d
       -0.22098733 -0.33449668 0.262692 0.10549403
000270 ad c8 8d 3e 1a 81 77 3c 6b e8 b4 bd fe aa 52 3e
       0.27692166 0.015106464 -0.08833393 0.20573041
000280 5a 00 5d 3d e0 91 9c 3e b1 a4 d7 be b9 1f 96 3c
       0.053955413 0.30580044 -0.42117837 0.018325673
000290 7e 6a 8f bc ba 41 18 3e 04 ab 60 3e ed e5 04 3f
       -0.017506834 0.14868823 0.21940237 0.5191334
0002a0 37 d7 61 3e ac 9d 88 3e ae ab 91 3e 12 9a ee bd
       0.22054754 0.26682794 0.28451294 -0.1165048
0002b0 00 0c fc 3e 04 ad 5e 3d a2 ae b7 bc e4 db b3 be
       0.49227905 0.05436422 -0.022422139 -0.351287
0002c0 02 e6 93 3e ab 2f 7d 3c 18 45 c5 be e0 1b 46 3d
       0.2888642 0.015453259 -0.38529277 0.048366427
0002d0 28 4b e6 be d5 69 c3 be 9b 47 7f be 61 58 00 3e
       -0.44979215 -0.3816668 -0.24929659 0.12533714
0002e0 39 7f a2 3e 4c 5a e3 3e ad ec 80 be 26 64 ac bd
       0.31737688 0.4440483 -0.2518057 -0.08417539
0002f0 85 07 b2 3e 5d 2f 34 3e 41 d6 3c 3f e9 cb 25 bc
       0.34771362 0.17596193 0.73764426 -0.010119417
000300 05 93 ab be bd f4 3b 3c 63 b9 2a 3d 2d 05 a8 bc
       -0.33510605 0.011471924 0.041680705 -0.02051028
000310 9d 72 27 3e f5 ca 7d 3e fa 18 88 3d 7f d6 21 be
       0.16352315 0.24784453 0.06645389 -0.1580448
000320 86 b9 11 bd a1 41 63 bb 7a a2 15 3c 10 e5 03 bc
       -0.03557732 -0.003467657 0.009132976 -0.008050218
000330 48 5c 91 3d c1 7d a0 bd 07 31 91 3d 87 83 a2 3b
       0.070976794 -0.07836486 0.07089429 0.004959527
000340 89 1d 09 be 84 6a 88 3e e5 91 2f be b3 36 3e bd
       -0.13390173 0.26643765 -0.17145498 -0.046438884
000350 c0 40 4a be d4 b9 04 3f 4c 54 03 3e c8 99 6b be
       -0.19751263 0.5184605 0.12825125 -0.23007882
000360 5e 98 9c be 2a 87 6d 3e ea c5 0e bd b5 f7 20 bd
       -0.30584997 0.23196092 -0.034856714 -0.03929873
000370 aa f5 c7 3e 60 b7 86 3c 1a eb 19 3f 24 40 e4 be
       0.39054614 0.016444862 0.6012436 -0.44580185
000380 45 a3 81 bc a2 09 5e bc bf 10 05 3f 8b dc 9a 3e
       -0.015824923 -0.013552101 0.5197868 0.30246386
000390 fa 65 9e 3e 1f 65 8d 3e bc 1e f6 3e f5 38 4e be
       0.30937177 0.27616212 0.48070323 -0.20138915
0003a0 31 77 2c bd a3 9d b7 be 1e b4 86 3e 43 db 05 bf
       -0.042105857 -0.35862455 0.26309294 -0.5228769
0003b0 33 cc f2 3e 64 b1 86 be b7 00 af 3b 02 c3 38 bc
       0.47421417 -0.26307213 0.0053406614 -0.011276962
0003c0 8e 04 e7 be 63 af ea 3e a2 a6 3f be a1 ab cc 3e
       -0.45120662 0.45836934 -0.18715909 0.39974692
0003d0 c4 69 eb 3e e5 b3 30 3e b6 6d 9a 3e 90 55 cb 3e
       0.4597913 0.17256124 0.30161828 0.39713717
0003e0 44 94 11 bf 4a 95 bc 3e 9b b1 82 3d cd 63 25 3d
       -0.5686686 0.3683265 0.06381532 0.04037838
0003f0 df 4b 4e 3d 8b 59 1d 3f d1 6c 05 be 65 dd cb be
       0.050365325 0.61464757 -0.13029791 -0.39817348

fc4.bias f4 [2]
000000 08 89 7f 3d 20 2f bc bd
       0.062386543 -0.09188676
